components/AI_SIG/model/MobileNetV1_person_detect.tflite (tflite, 300568 bytes, 28 tensors)

MobilenetV1/Conv2d_0/weights/read i1 [1, 3, 3, 8]
00000000: b579 9c67 e03a 57a7 8158 817f 5fe6 feb2
00000010: c5db 8a3c ecc7 afa8 f209 082f dd81 7bb7
00000020: 0a0e 246b 7fa3 01dd 1004 8c26 e64e 8181
00000030: 3981 044f f146 28c0 6a9c 3eb7 2e77 06fa
00000040: 461d 634c f2ec d191
-75 121 -100 103 -32 58 87 -89
-127 88 -127 127 95 -26 -2 -78
-59 -37 -118 60 -20 -57 -81 -88
-14 9 8 47 -35 -127 123 -73
10 14 36 107 127 -93 1 -35
16 4 -116 38 -26 78 -127 -127
57 -127 4 79 -15 70 40 -64
106 -100 62 -73 46 119 6 -6
70 29 99 76 -14 -20 -47 -111

MobilenetV1/Conv2d_10_depthwise/depthwise_weights/read i1 [1, 3, 3, 128]
00000000: 57c3 647f 0999 87f8 1356 0dbb e51d ec1c
00000010: 72d5 92c5 a979 1ab3 fc07 ed44 0f7f 674b
00000020: ee81 d9d1 2f7b 8181 b8a1 817f c1f0 c37f
00000030: c8c6 6324 2526 819d 4d81 5781 ba12 e755
00000040: ed95 5c22 e014 3833 f973 f819 afb6 7f76
00000050: a7d2 cab2 98ad 4023 56dd 59d4 2350 f4f0
00000060: cd40 56b8 81c0 94d0 cab9 2ff3 f10a 3a7f
00000070: be6e 7f73 da81 5887 499f d57f 095f 1b16
00000080: 3ec1 b026 d90c 8c00 de25 2ee7 b77f d765
00000090: ef0f 818b 9af4 5b0c d1af dc05 10f8 bf7d
000000a0: d9c6 e2e2 e57f e30d ab99 2822 ce4c df63
000000b0: 0f9d 7f7f 1931 e7d4 7fc5 2988 e506 d24e
000000c0: c73b 2bf5 7fd6 2d02 8c50 dca3 b299 327f
000000d0: 56c7 2a36 cbfa ba40 3e05 7fdc 292c ecfb
000000e0: c97f 084a 04dc a150 dbe7 f891 e9fc 673b
000000f0: 9932 6910 eb17 a6ae f278 f35d 0872 3509
87 -61 100 127 9 -103 -121 -8
19 86 13 -69 -27 29 -20 28
114 -43 -110 -59 -87 121 26 -77
-4 7 -19 68 15 127 103 75
-18 -127 -39 -47 47 123 -127 -127
-72 -95 -127 127 -63 -16 -61 127
-56 -58 99 36 37 38 -127 -99
77 -127 87 -127 -70 18 -25 85
-19 -107 92 34 -32 20 56 51
-7 115 -8 25 -81 -74 127 118
-89 -46 -54 -78 -104 -83 64 35
86 -35 89 -44 35 80 -12 -16
-51 64 86 -72 -127 -64 -108 -48
-54 -71 47 -13 -15 10 58 127
-66 110 127 115 -38 -127 88 -121
73 -97 -43 127 9 95 27 22
62 -63 -80 38 -39 12 -116 0
-34 37 46 -25 -73 127 -41 101
-17 15 -127 -117 -102 -12 91 12
-47 -81 -36 5 16 -8 -65 125
-39 -58 -30 -30 -27 127 -29 13
-85 -103 40 34 -50 76 -33 99
15 -99 127 127 25 49 -25 -44
127 -59 41 -120 -27 6 -46 78
-57 59 43 -11 127 -42 45 2
-116 80 -36 -93 -78 -103 50 127
86 -57 42 54 -53 -6 -70 64
62 5 127 -36 41 44 -20 -5
-55 127 8 74 4 -36 -95 80
-37 -25 -8 -111 -23 -4 103 59
-103 50 105 16 -21 23 -90 -82
-14 120 -13 93 8 114 53 9

MobilenetV1/Conv2d_10_pointwise/weights/read i1 [128, 1, 1, 128]
00000000: 0cb1 0a7f 0cfe f6ff 9ad5 c900 f8bc e4e0
00000010: 2128 06ed 301e cacf 0f05 dbe9 ead4 0db5
00000020: 30dd e84b a3dc 1c2b f03b cf1f da12 fdfb
00000030: d020 cbb3 1236 d735 de03 7003 3905 e8ce
00000040: 30f3 3bfd 350b 36aa ffc6 1afd 1801 c12b
00000050: c1fe 0eef 13d4 0417 ded9 01fb d7f8 ff0a
00000060: f9f8 0b23 c134 52d7 2b8f e439 3739 f5e4
00000070: 14ed e220 f80f 02ba 1124 f700 c2f2 e7f5
00000080: b3fa faad 423c 0d02 209f 21b0 fc22 f829
00000090: f932 1cf7 bcff eea8 fd31 072b 8403 f62e
000000a0: ccd9 1e02 0b10 9749 cfcd d138 c5e6 edb0
000000b0: 2ddb 2bfa f8f0 f5f5 0444 4ff1 4444 d00f
000000c0: 3027 aa22 8900 e50f cb05 ef9e e9e5 bde5
000000d0: d5e5 d4d1 ffa6 d83a fb08 09e9 de27 54f2
000000e0: e473 e80a fe1c 6132 2216 feaf 43cc 1f26
000000f0: 2150 007f 05f0 f0f1 ad20 fae3 40dc fc97
12 -79 10 127 12 -2 -10 -1
-102 -43 -55 0 -8 -68 -28 -32
33 40 6 -19 48 30 -54 -49
15 5 -37 -23 -22 -44 13 -75
48 -35 -24 75 -93 -36 28 43
-16 59 -49 31 -38 18 -3 -5
-48 32 -53 -77 18 54 -41 53
-34 3 112 3 57 5 -24 -50
48 -13 59 -3 53 11 54 -86
-1 -58 26 -3 24 1 -63 43
-63 -2 14 -17 19 -44 4 23
-34 -39 1 -5 -41 -8 -1 10
-7 -8 11 35 -63 52 82 -41
43 -113 -28 57 55 57 -11 -28
20 -19 -30 32 -8 15 2 -70
17 36 -9 0 -62 -14 -25 -11
-77 -6 -6 -83 66 60 13 2
32 -97 33 -80 -4 34 -8 41
-7 50 28 -9 -68 -1 -18 -88
-3 49 7 43 -124 3 -10 46
-52 -39 30 2 11 16 -105 73
-49 -51 -47 56 -59 -26 -19 -80
45 -37 43 -6 -8 -16 -11 -11
4 68 79 -15 68 68 -48 15
48 39 -86 34 -119 0 -27 15
-53 5 -17 -98 -23 -27 -67 -27
-43 -27 -44 -47 -1 -90 -40 58
-5 8 9 -23 -34 39 84 -14
-28 115 -24 10 -2 28 97 50
34 22 -2 -81 67 -52 31 38
33 80 0 127 5 -16 -16 -15
-83 32 -6 -29 64 -36 -4 -105

MobilenetV1/Conv2d_11_depthwise/depthwise_weights/read i1 [1, 3, 3, 128]
00000000: 8160 ec3a ecce e9ca 06cc e23f ee7f 816d
00000010: e5aa 7f89 7819 bbcc 3e59 174d 3bc4 54f7
00000020: 98f1 e8c3 a9cb e8f1 51e5 50b1 cb5f 3d7f
00000030: 01b4 abe4 42f5 3e7f fead 6071 9647 d308
00000040: f2f9 4d34 607f 717f bac9 d9ac 9c5c 3170
00000050: 81fb c721 8857 7ff8 99a6 2fdd f57f 180d
00000060: 5996 b0d1 f2ad c65e 84b4 81d1 f3ae 7f77
00000070: 0bd7 bc27 04d0 cfae d15a d6fe 7f1d c821
00000080: b2fa cf04 c632 f6d6 10cc ce60 324b 1473
00000090: 81d5 3383 eb3c 85a4 7fc9 ddcb 7f0a 52ec
000000a0: 42cc 20d2 81d9 e44a 7f45 f530 c4ff 3569
000000b0: c2dc c5d0 4e31 69d8 155f 5935 3113 bff7
000000c0: 331c d651 7f50 f74c 1eed 81f5 ec1e 3a21
000000d0: 9ef2 f77c 36bd e8b8 86e1 d97f 5e2f b0dc
000000e0: 8915 d338 81d5 8e16 182d c1f7 31c5 703c
000000f0: f3ae 81b7 cfcf c337 ab7f 3997 0bde e381
-127 96 -20 58 -20 -50 -23 -54
6 -52 -30 63 -18 127 -127 109
-27 -86 127 -119 120 25 -69 -52
62 89 23 77 59 -60 84 -9
-104 -15 -24 -61 -87 -53 -24 -15
81 -27 80 -79 -53 95 61 127
1 -76 -85 -28 66 -11 62 127
-2 -83 96 113 -106 71 -45 8
-14 -7 77 52 96 127 113 127
-70 -55 -39 -84 -100 92 49 112
-127 -5 -57 33 -120 87 127 -8
-103 -90 47 -35 -11 127 24 13
89 -106 -80 -47 -14 -83 -58 94
-124 -76 -127 -47 -13 -82 127 119
11 -41 -68 39 4 -48 -49 -82
-47 90 -42 -2 127 29 -56 33
-78 -6 -49 4 -58 50 -10 -42
16 -52 -50 96 50 75 20 115
-127 -43 51 -125 -21 60 -123 -92
127 -55 -35 -53 127 10 82 -20
66 -52 32 -46 -127 -39 -28 74
127 69 -11 48 -60 -1 53 105
-62 -36 -59 -48 78 49 105 -40
21 95 89 53 49 19 -65 -9
51 28 -42 81 127 80 -9 76
30 -19 -127 -11 -20 30 58 33
-98 -14 -9 124 54 -67 -24 -72
-122 -31 -39 127 94 47 -80 -36
-119 21 -45 56 -127 -43 -114 22
24 45 -63 -9 49 -59 112 60
-13 -82 -127 -73 -49 -49 -61 55
-85 127 57 -105 11 -34 -29 -127

MobilenetV1/Conv2d_11_pointwise/weights/read i1 [128, 1, 1, 128]
00000000: 12d3 fde4 0c1f 0020 d0d2 bf02 2605 27df
00000010: 0417 3bf9 dedc 1432 cec8 2611 0dd0 dafd
00000020: 0e33 3c29 dfe9 ea03 c2e8 1cca db7f bbeb
00000030: cb29 161d bb1b ebf4 05f2 23ff c11b df58
00000040: 0322 a7df 2e06 901d f704 0628 2c21 fff1
00000050: 129f 062a ced6 dd0e f21e 05fd 38dd 38ff
00000060: 43fb c41e 2fee 53cb ddf8 f447 bb16 3ec4
00000070: f80f ebfa 0a36 cfe7 e50a 0ee4 9a14 cc01
00000080: f507 d5ba e2ef fcc5 e417 25ed 11f8 f3d7
00000090: dfe7 ef42 edcc d005 b8f1 dc23 632e 16f0
000000a0: 02d5 23fc 43f9 e431 ce0d dd36 ed02 cfd1
000000b0: c60b 297f 33da 3cbc eded 18b3 fc11 1955
000000c0: 0f16 bd2c ec25 f0e4 0835 3805 2ad1 dcd9
000000d0: 0ce2 daee 24d1 0102 2ed1 0f35 cfd4 e613
000000e0: 19ff 3602 0fe5 14e4 f6ee eddd d4cd c3ff
000000f0: fb49 e4e2 c9f7 b6f0 ed0d 23f8 ddff d8cf
18 -45 -3 -28 12 31 0 32
-48 -46 -65 2 38 5 39 -33
4 23 59 -7 -34 -36 20 50
-50 -56 38 17 13 -48 -38 -3
14 51 60 41 -33 -23 -22 3
-62 -24 28 -54 -37 127 -69 -21
-53 41 22 29 -69 27 -21 -12
5 -14 35 -1 -63 27 -33 88
3 34 -89 -33 46 6 -112 29
-9 4 6 40 44 33 -1 -15
18 -97 6 42 -50 -42 -35 14
-14 30 5 -3 56 -35 56 -1
67 -5 -60 30 47 -18 83 -53
-35 -8 -12 71 -69 22 62 -60
-8 15 -21 -6 10 54 -49 -25
-27 10 14 -28 -102 20 -52 1
-11 7 -43 -70 -30 -17 -4 -59
-28 23 37 -19 17 -8 -13 -41
-33 -25 -17 66 -19 -52 -48 5
-72 -15 -36 35 99 46 22 -16
2 -43 35 -4 67 -7 -28 49
-50 13 -35 54 -19 2 -49 -47
-58 11 41 127 51 -38 60 -68
-19 -19 24 -77 -4 17 25 85
15 22 -67 44 -20 37 -16 -28
8 53 56 5 42 -47 -36 -39
12 -30 -38 -18 36 -47 1 2
46 -47 15 53 -49 -44 -26 19
25 -1 54 2 15 -27 20 -28
-10 -18 -19 -35 -44 -51 -61 -1
-5 73 -28 -30 -55 -9 -74 -16
-19 13 35 -8 -35 -1 -40 -49

MobilenetV1/Conv2d_12_depthwise/depthwise_weights/read i1 [1, 3, 3, 128]
00000000: 7a88 ba3f cbb5 1dad 81b9 c177 18a7 d076
00000010: e0c9 6502 0458 cb92 702b 7f0d 7f0f fdf2
00000020: e07f c6e5 d281 e6e8 7fd1 f334 c32c 868f
00000030: 7fdf 81a4 7f19 0d08 1e8b ffbf 042c 70ff
00000040: 7fc1 e3e3 acd1 71f6 e3b3 8f22 5a1b 8187
00000050: 3ad1 1205 1a4e 7dba 7ffe f965 0ebe 90b0
00000060: 91cc b084 bd7f 1e81 ec7f 9e6f 9e0a e981
00000070: 3fe3 8181 3446 c9c9 0696 0927 be2a db46
00000080: 74ef e6e0 81a7 5806 d87f f57c 4caa b518
00000090: 7fea 7ff0 197f 11ed bf7f 9577 4618 62f5
000000a0: e227 9a81 f6f1 4200 5cf9 c17f b76b 8147
000000b0: 6823 adb4 38f8 fa37 965f 8116 747f 4719
000000c0: 2bb0 a78f b8d1 ca69 11f8 8181 2e7f fe81
000000d0: 2ddb e0f9 1b41 eb06 2481 8d81 19ab 8c33
000000e0: a281 c8d3 5529 03e4 dd26 0b52 1207 5a91
000000f0: 670e 99bf 7f3c 50be 8199 ac03 780f bcdc
122 -120 -70 63 -53 -75 29 -83
-127 -71 -63 119 24 -89 -48 118
-32 -55 101 2 4 88 -53 -110
112 43 127 13 127 15 -3 -14
-32 127 -58 -27 -46 -127 -26 -24
127 -47 -13 52 -61 44 -122 -113
127 -33 -127 -92 127 25 13 8
30 -117 -1 -65 4 44 112 -1
127 -63 -29 -29 -84 -47 113 -10
-29 -77 -113 34 90 27 -127 -121
58 -47 18 5 26 78 125 -70
127 -2 -7 101 14 -66 -112 -80
-111 -52 -80 -124 -67 127 30 -127
-20 127 -98 111 -98 10 -23 -127
63 -29 -127 -127 52 70 -55 -55
6 -106 9 39 -66 42 -37 70
116 -17 -26 -32 -127 -89 88 6
-40 127 -11 124 76 -86 -75 24
127 -22 127 -16 25 127 17 -19
-65 127 -107 119 70 24 98 -11
-30 39 -102 -127 -10 -15 66 0
92 -7 -63 127 -73 107 -127 71
104 35 -83 -76 56 -8 -6 55
-106 95 -127 22 116 127 71 25
43 -80 -89 -113 -72 -47 -54 105
17 -8 -127 -127 46 127 -2 -127
45 -37 -32 -7 27 65 -21 6
36 -127 -115 -127 25 -85 -116 51
-94 -127 -56 -45 85 41 3 -28
-35 38 11 82 18 7 90 -111
103 14 -103 -65 127 60 80 -66
-127 -103 -84 3 120 15 -68 -36

MobilenetV1/Conv2d_12_pointwise/weights/read i1 [256, 1, 1, 128]
00000000: 2ff6 b9d7 23f5 3be2 24bf 2cf9 380f 25c9
00000010: 0027 e0d5 109f f411 d125 f028 73c2 11d8
00000020: fc1f 3b1a ed16 f3cc 01dd ce45 1dd9 3a3c
00000030: fca9 3c31 e4b8 c37f fd63 0012 dffd 56e6
00000040: 38f7 0d27 eeef 1ae2 c2f7 0601 e1a3 6a00
00000050: c402 2434 fceb d510 cfc8 10eb 49f9 0414
00000060: f7c7 ff23 4b3c 4f0c 2122 b5f6 d4d4 de02
00000070: e639 16fe 73b6 0416 12ee f466 e300 0cd6
00000080: bf2e d902 d9c6 3525 db3e 04c1 17e5 409c
00000090: 0ef6 c8a8 0054 4a2d d2b7 b5fe e24c 3034
000000a0: fefc 0532 4619 cae6 7717 8162 f0c7 044a
000000b0: 5118 0f07 a31b e3c0 6303 0133 1417 352e
000000c0: 782f 03dd f653 1c11 5923 14dc d704 cb3c
000000d0: 460c 2ca5 f5f1 efd8 4acd 3fb5 3746 ef56
000000e0: 0739 19e7 64f1 3728 e524 1836 e3c9 644c
000000f0: 2576 d800 fd83 fd4c 0c3a e9c3 176c ebe0
47 -10 -71 -41 35 -11 59 -30
36 -65 44 -7 56 15 37 -55
0 39 -32 -43 16 -97 -12 17
-47 37 -16 40 115 -62 17 -40
-4 31 59 26 -19 22 -13 -52
1 -35 -50 69 29 -39 58 60
-4 -87 60 49 -28 -72 -61 127
-3 99 0 18 -33 -3 86 -26
56 -9 13 39 -18 -17 26 -30
-62 -9 6 1 -31 -93 106 0
-60 2 36 52 -4 -21 -43 16
-49 -56 16 -21 73 -7 4 20
-9 -57 -1 35 75 60 79 12
33 34 -75 -10 -44 -44 -34 2
-26 57 22 -2 115 -74 4 22
18 -18 -12 102 -29 0 12 -42
-65 46 -39 2 -39 -58 53 37
-37 62 4 -63 23 -27 64 -100
14 -10 -56 -88 0 84 74 45
-46 -73 -75 -2 -30 76 48 52
-2 -4 5 50 70 25 -54 -26
119 23 -127 98 -16 -57 4 74
81 24 15 7 -93 27 -29 -64
99 3 1 51 20 23 53 46
120 47 3 -35 -10 83 28 17
89 35 20 -36 -41 4 -53 60
70 12 44 -91 -11 -15 -17 -40
74 -51 63 -75 55 70 -17 86
7 57 25 -25 100 -15 55 40
-27 36 24 54 -29 -55 100 76
37 118 -40 0 -3 -125 -3 76
12 58 -23 -61 23 108 -21 -32

MobilenetV1/Conv2d_13_depthwise/depthwise_weights/read i1 [1, 3, 3, 256]
00000000: 95e3 77f4 7f81 9de6 15a6 c2ba f5f3 e803
00000010: f1fb 0df2 23fb ef4c fdab d00e cfb8 8184
00000020: f1df fbdb f8ed e907 2aac d3ee 4081 c620
00000030: e7e4 dd7f f8e1 247f e74f d30c bc16 c7c7
00000040: ecca a684 aee2 1d19 b8e5 c889 fbca f3f9
00000050: d6d1 dfca 2a46 812a f8c2 09b0 a9f4 0bb7
00000060: fddf 74a9 daed 19ba a301 f19e ec17 10f8
00000070: 9509 20c7 a0b3 c91f d1cf e7f3 7fe4 ccbc
00000080: 81e9 d9c9 f302 d346 3c81 bcdf eee3 df02
00000090: 23fe f8d4 19d4 a07f 0a0e 26e4 168b 81ee
000000a0: f8f1 e8db eb90 c42c 9bf2 e97f 81b4 f6af
000000b0: 8a51 eeee 21e1 a7fb 89d3 ce25 cfa4 b1e2
000000c0: 6b14 5681 a520 e2d1 e2b6 7f35 ffb6 dd37
000000d0: f106 1856 02fd ddd1 8c93 fcee ebf8 f1bb
000000e0: a82c bbdf ebf2 13d8 e118 fa86 d4b5 81a2
000000f0: dbd5 0ae0 152c cae9 05ec c6f0 a5e2 0e0b
-107 -29 119 -12 127 -127 -99 -26
21 -90 -62 -70 -11 -13 -24 3
-15 -5 13 -14 35 -5 -17 76
-3 -85 -48 14 -49 -72 -127 -124
-15 -33 -5 -37 -8 -19 -23 7
42 -84 -45 -18 64 -127 -58 32
-25 -28 -35 127 -8 -31 36 127
-25 79 -45 12 -68 22 -57 -57
-20 -54 -90 -124 -82 -30 29 25
-72 -27 -56 -119 -5 -54 -13 -7
-42 -47 -33 -54 42 70 -127 42
-8 -62 9 -80 -87 -12 11 -73
-3 -33 116 -87 -38 -19 25 -70
-93 1 -15 -98 -20 23 16 -8
-107 9 32 -57 -96 -77 -55 31
-47 -49 -25 -13 127 -28 -52 -68
-127 -23 -39 -55 -13 2 -45 70
60 -127 -68 -33 -18 -29 -33 2
35 -2 -8 -44 25 -44 -96 127
10 14 38 -28 22 -117 -127 -18
-8 -15 -24 -37 -21 -112 -60 44
-101 -14 -23 127 -127 -76 -10 -81
-118 81 -18 -18 33 -31 -89 -5
-119 -45 -50 37 -49 -92 -79 -30
107 20 86 -127 -91 32 -30 -47
-30 -74 127 53 -1 -74 -35 55
-15 6 24 86 2 -3 -35 -47
-116 -109 -4 -18 -21 -8 -15 -69
-88 44 -69 -33 -21 -14 19 -40
-31 24 -6 -122 -44 -75 -127 -94
-37 -43 10 -32 21 44 -54 -23
5 -20 -58 -16 -91 -30 14 11

MobilenetV1/Conv2d_13_pointwise/weights/read i1 [256, 1, 1, 256]
00000000: 26e0 e199 033c d2d9 e71b d9fc 13fd c8f4
00000010: f1d0 de12 1000 1bf6 ccb8 b238 35f0 fa07
00000020: fee4 1b21 2bdd ee36 e1e5 c3fd fffe e7db
00000030: eb08 c4cf b6e8 ff1d 2cf2 e8fd 1e51 30ca
00000040: 1130 deb4 00f1 ed25 fc8b fd26 e2fb 9ee3
00000050: debb 08f7 ef01 0dca de01 e600 34fa 310b
00000060: a5e9 024a 28f1 aa08 df36 cebe f614 f4d9
00000070: 2dbf e025 04eb d0f7 cafb 1225 3b14 f2f9
00000080: 08f9 00c4 3c0f 23e8 c8ec 0bd0 05bc ebfd
00000090: b8fb 26e7 eafb 1243 f6c2 1081 cbc3 12fe
000000a0: 1bfc ea12 1c04 ea46 1237 2812 321a dd23
000000b0: e501 fffa 2533 0310 ed0a deff 19cf d6dc
000000c0: 2cf7 091a f1ed deee e814 0e33 e8d9 a7ec
000000d0: 452f 06d9 19ed d02d cd1d e4c8 eec4 f2cb
000000e0: ffda 414a d5e1 15ed c41b 11dd 2430 0a23
000000f0: befc 23f0 56d1 ddf4 d8d1 19d5 272e b0d2
38 -32 -31 -103 3 60 -46 -39
-25 27 -39 -4 19 -3 -56 -12
-15 -48 -34 18 16 0 27 -10
-52 -72 -78 56 53 -16 -6 7
-2 -28 27 33 43 -35 -18 54
-31 -27 -61 -3 -1 -2 -25 -37
-21 8 -60 -49 -74 -24 -1 29
44 -14 -24 -3 30 81 48 -54
17 48 -34 -76 0 -15 -19 37
-4 -117 -3 38 -30 -5 -98 -29
-34 -69 8 -9 -17 1 13 -54
-34 1 -26 0 52 -6 49 11
-91 -23 2 74 40 -15 -86 8
-33 54 -50 -66 -10 20 -12 -39
45 -65 -32 37 4 -21 -48 -9
-54 -5 18 37 59 20 -14 -7
8 -7 0 -60 60 15 35 -24
-56 -20 11 -48 5 -68 -21 -3
-72 -5 38 -25 -22 -5 18 67
-10 -62 16 -127 -53 -61 18 -2
27 -4 -22 18 28 4 -22 70
18 55 40 18 50 26 -35 35
-27 1 -1 -6 37 51 3 16
-19 10 -34 -1 25 -49 -42 -36
44 -9 9 26 -15 -19 -34 -18
-24 20 14 51 -24 -39 -89 -20
69 47 6 -39 25 -19 -48 45
-51 29 -28 -56 -18 -60 -14 -53
-1 -38 65 74 -43 -31 21 -19
-60 27 17 -35 36 48 10 35
-66 -4 35 -16 86 -47 -35 -12
-40 -47 25 -43 39 46 -80 -46

MobilenetV1/Conv2d_1_depthwise/depthwise_weights/read i1 [1, 3, 3, 8]
00000000: 14fd 8d2e 0c0c ff1a 0e00 85be ff00 f9f0
00000010: 11f9 8190 f701 0001 e0f0 f29f e1e9 0022
00000020: 811b 0c18 fecb 135e d9eb 423e 0aec 007f
00000030: 24f9 dfcc 81bc 0166 b47f fe81 1c81 7f63
00000040: 253b c3a5 788f 0103
20 -3 -115 46 12 12 -1 26
14 0 -123 -66 -1 0 -7 -16
17 -7 -127 -112 -9 1 0 1
-32 -16 -14 -97 -31 -23 0 34
-127 27 12 24 -2 -53 19 94
-39 -21 66 62 10 -20 0 127
36 -7 -33 -52 -127 -68 1 102
-76 127 -2 -127 28 -127 127 99
37 59 -61 -91 120 -113 1 3

MobilenetV1/Conv2d_1_pointwise/weights/read i1 [16, 1, 1, 8]
00000000: fff9 f00f 0506 8104 ff74 effe f981 1816
00000010: 7feb f704 0012 f5f7 20ec 06f4 7f5a 7af7
00000020: 07fa 2aef 600a 7fee 8155 0afa fcbb 0bfe
00000030: df19 ecfb 1f04 81ef 7f3e eaf8 ce31 4d11
00000040: fc81 0b00 fd15 f9f8 010d 0f01 03e6 8103
00000050: 81db 0cfa 0a0d c9f8 495a 15f1 fd60 81fd
00000060: 04f1 0107 a20b 81f9 b4c8 0702 aa17 7f02
00000070: 05d9 d7f0 7f23 d81d 0d0a 09f1 f5ea 7f00
-1 -7 -16 15 5 6 -127 4
-1 116 -17 -2 -7 -127 24 22
127 -21 -9 4 0 18 -11 -9
32 -20 6 -12 127 90 122 -9
7 -6 42 -17 96 10 127 -18
-127 85 10 -6 -4 -69 11 -2
-33 25 -20 -5 31 4 -127 -17
127 62 -22 -8 -50 49 77 17
-4 -127 11 0 -3 21 -7 -8
1 13 15 1 3 -26 -127 3
-127 -37 12 -6 10 13 -55 -8
73 90 21 -15 -3 96 -127 -3
4 -15 1 7 -94 11 -127 -7
-76 -56 7 2 -86 23 127 2
5 -39 -41 -16 127 35 -40 29
13 10 9 -15 -11 -22 127 0

MobilenetV1/Conv2d_2_depthwise/depthwise_weights/read i1 [1, 3, 3, 16]
00000000: 4f2a de21 a6cc 3325 47e7 16e6 c759 b994
00000010: 7f3d d75e 819f 6150 6ab5 40a7 a37f a2ac
00000020: 4f1a de32 bbe6 3d37 2ed2 3788 cc3a dae7
00000030: 4e52 bd30 a198 3d7f 53db 53b1 b73b a0c6
00000040: 697f 817f 8381 7f7f 7f81 7f81 8169 8181
00000050: 3840 c843 b5e8 562f 3dd3 4ba6 b84f bbc4
00000060: 1620 d601 e1e3 1863 1df3 41df eb04 e918
00000070: 1d4c a423 c5d1 2d58 2beb 53c8 c907 e0fd
00000080: 1326 eb24 f901 1c12 1200 23f0 e30e f8fc
79 42 -34 33 -90 -52 51 37
71 -25 22 -26 -57 89 -71 -108
127 61 -41 94 -127 -97 97 80
106 -75 64 -89 -93 127 -94 -84
79 26 -34 50 -69 -26 61 55
46 -46 55 -120 -52 58 -38 -25
78 82 -67 48 -95 -104 61 127
83 -37 83 -79 -73 59 -96 -58
105 127 -127 127 -125 -127 127 127
127 -127 127 -127 -127 105 -127 -127
56 64 -56 67 -75 -24 86 47
61 -45 75 -90 -72 79 -69 -60
22 32 -42 1 -31 -29 24 99
29 -13 65 -33 -21 4 -23 24
29 76 -92 35 -59 -47 45 88
43 -21 83 -56 -55 7 -32 -3
19 38 -21 36 -7 1 28 18
18 0 35 -16 -29 14 -8 -4

MobilenetV1/Conv2d_2_pointwise/weights/read i1 [32, 1, 1, 16]
00000000: 0334 eed9 3814 0dc6 dc0d 1df3 7f3a 0113
00000010: 0f3c fd0d e3d9 c3af adfc 1aff f27f e4dc
00000020: 0d74 0d0a dbdb d6ac e41f fc43 ff7f f904
00000030: f848 f085 5681 bcc9 d404 31f8 64e4 16ec
00000040: 40ed bef2 0c0b 190c 3807 c8e4 2d81 e477
00000050: abf6 2ae2 27e8 0aa3 49ad 7f1c f439 17a1
00000060: a71b 0bef 17d9 fff1 0249 2be3 cf2f 7fa2
00000070: ffe4 0fe8 e401 7fa3 fadd ffce 0df6 ea0d
00000080: aaf6 c232 02eb 291b 7fe6 ee0c f3c2 2535
00000090: defc dcc9 7f2b d717 2022 2b09 59ba 3835
000000a0: 165d 4d3c ad95 09bd 81e2 22c8 9f33 ecab
000000b0: 7016 eb24 20ce 2fc2 b8e5 f714 1e22 812f
000000c0: da7f c3ce 5acc 70fa 4d06 a78e 06bc 1d35
000000d0: 150b d6ed 1fef c2ca d1e1 f723 ff81 d239
000000e0: e3ee 1506 e2f6 48c0 13eb 81bd 1337 f538
000000f0: 29fc 7ff4 ee0a 081e ac1f d043 e4d3 f1fd
3 52 -18 -39 56 20 13 -58
-36 13 29 -13 127 58 1 19
15 60 -3 13 -29 -39 -61 -81
-83 -4 26 -1 -14 127 -28 -36
13 116 13 10 -37 -37 -42 -84
-28 31 -4 67 -1 127 -7 4
-8 72 -16 -123 86 -127 -68 -55
-44 4 49 -8 100 -28 22 -20
64 -19 -66 -14 12 11 25 12
56 7 -56 -28 45 -127 -28 119
-85 -10 42 -30 39 -24 10 -93
73 -83 127 28 -12 57 23 -95
-89 27 11 -17 23 -39 -1 -15
2 73 43 -29 -49 47 127 -94
-1 -28 15 -24 -28 1 127 -93
-6 -35 -1 -50 13 -10 -22 13
-86 -10 -62 50 2 -21 41 27
127 -26 -18 12 -13 -62 37 53
-34 -4 -36 -55 127 43 -41 23
32 34 43 9 89 -70 56 53
22 93 77 60 -83 -107 9 -67
-127 -30 34 -56 -97 51 -20 -85
112 22 -21 36 32 -50 47 -62
-72 -27 -9 20 30 34 -127 47
-38 127 -61 -50 90 -52 112 -6
77 6 -89 -114 6 -68 29 53
21 11 -42 -19 31 -17 -62 -54
-47 -31 -9 35 -1 -127 -46 57
-29 -18 21 6 -30 -10 72 -64
19 -21 -127 -67 19 55 -11 56
41 -4 127 -12 -18 10 8 30
-84 31 -48 67 -28 -45 -15 -3

MobilenetV1/Conv2d_3_depthwise/depthwise_weights/read i1 [1, 3, 3, 32]
00000000: 1b31 3b4d 2efe e7ae cf14 7ffc e608 36a9
00000010: 017a dff7 f80b ed0e fefc d381 f5bc 02f4
00000020: a481 9afa cdf0 46d4 d4cd a837 b3b8 2ee1
00000030: 514e fa1f f2c3 d97f 3c0f 4ee4 7f81 81b8
00000040: 160a 06b1 bef5 2ad4 2f25 d5ac 5729 d3a5
00000050: f08d 1907 811b be01 e1ea f6cc e931 2a12
00000060: f146 7f7f 7fe0 61bb dd0a e804 b711 0ccd
00000070: 0a7f f61e fea6 a401 64c9 4aa8 43ba c37f
00000080: 8163 bb00 c681 7f9e 8181 f77f 8181 7f1d
00000090: 7fed 7f81 e37f 9f3c 7f81 7f49 619f a200
000000a0: 13a9 55a7 cffa 7e81 f916 07ac e642 faf0
000000b0: 13a0 bb30 81f9 81e7 fce6 c0c1 2c78 dfca
000000c0: 0b97 0f1e e80e c8f6 f614 9909 d919 d981
000000d0: ce24 16f6 4240 d6d9 e42b 069b eaf5 190d
000000e0: fd68 c6ef edee f708 e409 3b11 aae4 08ff
000000f0: 08b8 de58 ede2 0607 1562 0883 e514 c726
27 49 59 77 46 -2 -25 -82
-49 20 127 -4 -26 8 54 -87
1 122 -33 -9 -8 11 -19 14
-2 -4 -45 -127 -11 -68 2 -12
-92 -127 -102 -6 -51 -16 70 -44
-44 -51 -88 55 -77 -72 46 -31
81 78 -6 31 -14 -61 -39 127
60 15 78 -28 127 -127 -127 -72
22 10 6 -79 -66 -11 42 -44
47 37 -43 -84 87 41 -45 -91
-16 -115 25 7 -127 27 -66 1
-31 -22 -10 -52 -23 49 42 18
-15 70 127 127 127 -32 97 -69
-35 10 -24 4 -73 17 12 -51
10 127 -10 30 -2 -90 -92 1
100 -55 74 -88 67 -70 -61 127
-127 99 -69 0 -58 -127 127 -98
-127 -127 -9 127 -127 -127 127 29
127 -19 127 -127 -29 127 -97 60
127 -127 127 73 97 -97 -94 0
19 -87 85 -89 -49 -6 126 -127
-7 22 7 -84 -26 66 -6 -16
19 -96 -69 48 -127 -7 -127 -25
-4 -26 -64 -63 44 120 -33 -54
11 -105 15 30 -24 14 -56 -10
-10 20 -103 9 -39 25 -39 -127
-50 36 22 -10 66 64 -42 -39
-28 43 6 -101 -22 -11 25 13
-3 104 -58 -17 -19 -18 -9 8
-28 9 59 17 -86 -28 8 -1
8 -72 -34 88 -19 -30 6 7
21 98 8 -125 -27 20 -57 38

MobilenetV1/Conv2d_3_pointwise/weights/read i1 [32, 1, 1, 32]
00000000: 13e9 d214 9741 a4eb 071d 32fb f70a e6fe
00000010: bd6c 2d1c d13a 162d 1ef8 7f13 1bc3 502b
00000020: f917 fde6 16ea e098 cd32 eb3c 10f8 1bef
00000030: f110 3500 0b13 03b3 df05 7fdd ae3d 3bf7
00000040: 62be f2ba 2810 fb98 a521 3127 ecfd e41c
00000050: 09e2 440d 2828 f9d5 43e8 cc27 be81 a7d8
00000060: 1de1 00e9 335a 59f8 81a4 1200 a101 2629
00000070: 3727 e7fd 12cc e1d7 015f 1bf5 5c1c c2b4
00000080: e3ed ee03 dcbb dc71 b4b9 f2f3 bac9 1825
00000090: d3e0 89dd 30c3 7ffb 3e58 ca55 a7ec ccf0
000000a0: fb01 f4b8 e809 0439 0281 ccbe c906 d111
000000b0: bede e4f7 2ff2 3804 d252 f207 24d5 bf06
000000c0: 14f7 4908 d8c9 ae1b 6e40 ca7f 511f f0f8
000000d0: 2b2b fff9 0ae4 1e14 c6f9 2742 0e38 1401
000000e0: deea 3b35 60f5 2dea ab4e 3373 586f 0220
000000f0: 7d30 1e0d d61a e960 b70f 118e 2629 1f7f
19 -23 -46 20 -105 65 -92 -21
7 29 50 -5 -9 10 -26 -2
-67 108 45 28 -47 58 22 45
30 -8 127 19 27 -61 80 43
-7 23 -3 -26 22 -22 -32 -104
-51 50 -21 60 16 -8 27 -17
-15 16 53 0 11 19 3 -77
-33 5 127 -35 -82 61 59 -9
98 -66 -14 -70 40 16 -5 -104
-91 33 49 39 -20 -3 -28 28
9 -30 68 13 40 40 -7 -43
67 -24 -52 39 -66 -127 -89 -40
29 -31 0 -23 51 90 89 -8
-127 -92 18 0 -95 1 38 41
55 39 -25 -3 18 -52 -31 -41
1 95 27 -11 92 28 -62 -76
-29 -19 -18 3 -36 -69 -36 113
-76 -71 -14 -13 -70 -55 24 37
-45 -32 -119 -35 48 -61 127 -5
62 88 -54 85 -89 -20 -52 -16
-5 1 -12 -72 -24 9 4 57
2 -127 -52 -66 -55 6 -47 17
-66 -34 -28 -9 47 -14 56 4
-46 82 -14 7 36 -43 -65 6
20 -9 73 8 -40 -55 -82 27
110 64 -54 127 81 31 -16 -8
43 43 -1 -7 10 -28 30 20
-58 -7 39 66 14 56 20 1
-34 -22 59 53 96 -11 45 -22
-85 78 51 115 88 111 2 32
125 48 30 13 -42 26 -23 96
-73 15 17 -114 38 41 31 127

MobilenetV1/Conv2d_4_depthwise/depthwise_weights/read i1 [1, 3, 3, 32]
00000000: b23b bec6 7fe4 2029 a718 e5fe 3ccf 6443
00000010: 27a0 d552 bb59 c839 cc50 6854 aa81 0515
00000020: ab52 9e96 1fae 3631 81d7 a7e6 6481 7f5a
00000030: 5c93 aa64 b47f b95b ac67 7f52 8896 b541
00000040: f333 e1bf b8c5 190e b8cc cfe2 47af 2728
00000050: 33c4 c82a f036 f72b d435 2107 d1e5 b12c
00000060: ca70 bca3 6ab9 5053 afc1 adb4 6523 6063
00000070: 3d8e 9e66 ba58 a446 a65f 7371 afcd af43
00000080: 817f 8181 fe81 7f7f a781 8181 7f2c 7c7f
00000090: 7f81 817f 8166 817f 817f 7d7f 81a4 817f
000000a0: b537 bab4 adb3 474a e3b2 c5af 3cfe 2f2a
000000b0: 36c8 cf3a c60f c241 ca3d 1f21 ccc2 c144
000000c0: 0445 dcd5 23c8 3849 fdc0 d2a9 472e 1128
000000d0: 23d1 c623 eff9 c918 d62d 1f2f dff8 a82e
000000e0: ab3b bbc5 dfbf 5963 fcaa c684 4659 1036
000000f0: 39d8 c232 cdcc b232 cc31 1b46 d6d7 cb46
-78 59 -66 -58 127 -28 32 41
-89 24 -27 -2 60 -49 100 67
39 -96 -43 82 -69 89 -56 57
-52 80 104 84 -86 -127 5 21
-85 82 -98 -106 31 -82 54 49
-127 -41 -89 -26 100 -127 127 90
92 -109 -86 100 -76 127 -71 91
-84 103 127 82 -120 -106 -75 65
-13 51 -31 -65 -72 -59 25 14
-72 -52 -49 -30 71 -81 39 40
51 -60 -56 42 -16 54 -9 43
-44 53 33 7 -47 -27 -79 44
-54 112 -68 -93 106 -71 80 83
-81 -63 -83 -76 101 35 96 99
61 -114 -98 102 -70 88 -92 70
-90 95 115 113 -81 -51 -81 67
-127 127 -127 -127 -2 -127 127 127
-89 -127 -127 -127 127 44 124 127
127 -127 -127 127 -127 102 -127 127
-127 127 125 127 -127 -92 -127 127
-75 55 -70 -76 -83 -77 71 74
-29 -78 -59 -81 60 -2 47 42
54 -56 -49 58 -58 15 -62 65
-54 61 31 33 -52 -62 -63 68
4 69 -36 -43 35 -56 56 73
-3 -64 -46 -87 71 46 17 40
35 -47 -58 35 -17 -7 -55 24
-42 45 31 47 -33 -8 -88 46
-85 59 -69 -59 -33 -65 89 99
-4 -86 -58 -124 70 89 16 54
57 -40 -62 50 -51 -52 -78 50
-52 49 27 70 -42 -41 -53 70

MobilenetV1/Conv2d_4_pointwise/weights/read i1 [64, 1, 1, 32]
00000000: f7ee f335 fab2 f75f 50fe d6fc 1120 d597
00000010: 2000 e1f7 b733 ecf1 d113 fb4f 7fa5 fa8e
00000020: e5e7 fa34 03f4 ee21 0195 0f8b 0703 a3c8
00000030: f1d3 0ed7 1aeb e40d 28f5 a17f 36fb 101d
00000040: 0e7f 0bf1 3904 1edb b1f6 d413 f335 ef0d
00000050: 2ab5 0ec8 f0df 256e e2f7 103c cf07 0fe6
00000060: 45dd 17ef 33cf e134 0834 f60e fafb fc7f
00000070: f7e5 1aea 111b fb95 17fe c7b3 de22 e7ea
00000080: dc53 2a12 db6c 16bc 0146 efdc 27f8 be99
00000090: 43e8 9ac0 93c0 fef6 c87f fd07 d8e8 2035
000000a0: e5d2 71f5 dfc7 b01d 12de ef17 013a 116d
000000b0: 041b 687f 1bce 1def e8d5 eb35 da11 b5fb
000000c0: f9e4 e324 1702 20ac f248 11e2 febe d481
000000d0: 67bd 2dea e8ec cff7 d944 95ea 01d2 08f5
000000e0: 1ab5 4de1 15e9 01ea aada 1fd1 f811 bd3b
000000f0: 81db f5fb e0f8 e51e f7f7 6d0d f3eb 007d
-9 -18 -13 53 -6 -78 -9 95
80 -2 -42 -4 17 32 -43 -105
32 0 -31 -9 -73 51 -20 -15
-47 19 -5 79 127 -91 -6 -114
-27 -25 -6 52 3 -12 -18 33
1 -107 15 -117 7 3 -93 -56
-15 -45 14 -41 26 -21 -28 13
40 -11 -95 127 54 -5 16 29
14 127 11 -15 57 4 30 -37
-79 -10 -44 19 -13 53 -17 13
42 -75 14 -56 -16 -33 37 110
-30 -9 16 60 -49 7 15 -26
69 -35 23 -17 51 -49 -31 52
8 52 -10 14 -6 -5 -4 127
-9 -27 26 -22 17 27 -5 -107
23 -2 -57 -77 -34 34 -25 -22
-36 83 42 18 -37 108 22 -68
1 70 -17 -36 39 -8 -66 -103
67 -24 -102 -64 -109 -64 -2 -10
-56 127 -3 7 -40 -24 32 53
-27 -46 113 -11 -33 -57 -80 29
18 -34 -17 23 1 58 17 109
4 27 104 127 27 -50 29 -17
-24 -43 -21 53 -38 17 -75 -5
-7 -28 -29 36 23 2 32 -84
-14 72 17 -30 -2 -66 -44 -127
103 -67 45 -22 -24 -20 -49 -9
-39 68 -107 -22 1 -46 8 -11
26 -75 77 -31 21 -23 1 -22
-86 -38 31 -47 -8 17 -67 59
-127 -37 -11 -5 -32 -8 -27 30
-9 -9 109 13 -13 -21 0 125

MobilenetV1/Conv2d_5_depthwise/depthwise_weights/read i1 [1, 3, 3, 64]
00000000: 47c3 feec fe7f d681 3d37 290b b81b 0c3a
00000010: 13c8 de81 d301 f4bc 3cf7 44ac 0bf6 81c9
00000020: 3013 e831 0f2c 8dc6 7f28 0df9 b9a3 4d81
00000030: 0bed 7ffb e27f bf91 7fc9 a972 30fb e142
00000040: 4881 1f3c 7f7c ac93 517f dd15 f113 477f
00000050: 3490 63b4 fd89 7fb9 7f17 31b5 5fa1 3d4c
00000060: 609c 3881 e9f7 82b6 fdcf ed39 8189 ba8a
00000070: 1927 e8de 8144 86b3 5ba5 8137 8bd5 abac
00000080: 0cc4 03fb eab8 d5a4 e3cd ebea ec24 ce10
00000090: dcee dbe8 e035 08cc eaf1 3ef8 c7f9 9afe
000000a0: 4a30 f9dd 1aec 0bd9 d0d7 f9d0 fb9e f0bb
000000b0: dff5 0add fddf d207 e0fe 0596 42f2 ecb9
000000c0: 3df1 6681 1877 f489 7fbe 7f20 f17f ebf5
000000d0: 5581 42bb dfba 00ef 4703 8b81 d6e0 acab
000000e0: 70a4 81b3 93a3 757f 4c24 7f2d 9b81 7f8a
000000f0: 4f02 5fa6 fd4f 8d81 e0cf cd7f f681 cac7
71 -61 -2 -20 -2 127 -42 -127
61 55 41 11 -72 27 12 58
19 -56 -34 -127 -45 1 -12 -68
60 -9 68 -84 11 -10 -127 -55
48 19 -24 49 15 44 -115 -58
127 40 13 -7 -71 -93 77 -127
11 -19 127 -5 -30 127 -65 -111
127 -55 -87 114 48 -5 -31 66
72 -127 31 60 127 124 -84 -109
81 127 -35 21 -15 19 71 127
52 -112 99 -76 -3 -119 127 -71
127 23 49 -75 95 -95 61 76
96 -100 56 -127 -23 -9 -126 -74
-3 -49 -19 57 -127 -119 -70 -118
25 39 -24 -34 -127 68 -122 -77
91 -91 -127 55 -117 -43 -85 -84
12 -60 3 -5 -22 -72 -43 -92
-29 -51 -21 -22 -20 36 -50 16
-36 -18 -37 -24 -32 53 8 -52
-22 -15 62 -8 -57 -7 -102 -2
74 48 -7 -35 26 -20 11 -39
-48 -41 -7 -48 -5 -98 -16 -69
-33 -11 10 -35 -3 -33 -46 7
-32 -2 5 -106 66 -14 -20 -71
61 -15 102 -127 24 119 -12 -119
127 -66 127 32 -15 127 -21 -11
85 -127 66 -69 -33 -70 0 -17
71 3 -117 -127 -42 -32 -84 -85
112 -92 -127 -77 -109 -93 117 127
76 36 127 45 -101 -127 127 -118
79 2 95 -90 -3 79 -115 -127
-32 -49 -51 127 -10 -127 -54 -57

MobilenetV1/Conv2d_5_pointwise/weights/read i1 [64, 1, 1, 64]
00000000: f332 0b24 ff39 14fe 1c2f e11e 0bd4 b6cf
00000010: 31f6 7fec 48d7 4add 3448 e2cb 261f 01bb
00000020: e21a 1ed3 fdc7 a4e3 1012 df45 f6e0 29e0
00000030: 71a6 0318 b521 acf5 121e 0e00 f10b 0d25
00000040: 7fe0 2d0b c3f7 d348 0607 da09 f3c9 ba10
00000050: cf00 fc1c 131e 0847 e2d3 ee11 3abd 1043
00000060: d75d 1115 e70d 17f9 1723 18f1 1efd e2cc
00000070: f6f6 1c01 26ec f0ec ebe2 56f5 2100 f6c5
00000080: f303 f219 f401 0f31 dcf4 01db 3a81 d617
00000090: 79ec eefd e7e8 faf5 06f7 1637 04ed 1f21
000000a0: bd24 f344 e60d 0924 01dc 1a2a e3ef ee38
000000b0: 1025 ed02 e711 08fd f118 f5e3 2614 2df0
000000c0: e8fb 21ff 02f0 f0fc e407 021f 17fd 1529
000000d0: d91a 1609 091f 2419 e881 edcd 2934 12fb
000000e0: 40d8 1107 d6f3 fa06 fe3d 2cdc 1fee dc12
000000f0: 382f 2aee 02f5 052e 0d20 f60c e220 1400
-13 50 11 36 -1 57 20 -2
28 47 -31 30 11 -44 -74 -49
49 -10 127 -20 72 -41 74 -35
52 72 -30 -53 38 31 1 -69
-30 26 30 -45 -3 -57 -92 -29
16 18 -33 69 -10 -32 41 -32
113 -90 3 24 -75 33 -84 -11
18 30 14 0 -15 11 13 37
127 -32 45 11 -61 -9 -45 72
6 7 -38 9 -13 -55 -70 16
-49 0 -4 28 19 30 8 71
-30 -45 -18 17 58 -67 16 67
-41 93 17 21 -25 13 23 -7
23 35 24 -15 30 -3 -30 -52
-10 -10 28 1 38 -20 -16 -20
-21 -30 86 -11 33 0 -10 -59
-13 3 -14 25 -12 1 15 49
-36 -12 1 -37 58 -127 -42 23
121 -20 -18 -3 -25 -24 -6 -11
6 -9 22 55 4 -19 31 33
-67 36 -13 68 -26 13 9 36
1 -36 26 42 -29 -17 -18 56
16 37 -19 2 -25 17 8 -3
-15 24 -11 -29 38 20 45 -16
-24 -5 33 -1 2 -16 -16 -4
-28 7 2 31 23 -3 21 41
-39 26 22 9 9 31 36 25
-24 -127 -19 -51 41 52 18 -5
64 -40 17 7 -42 -13 -6 6
-2 61 44 -36 31 -18 -36 18
56 47 42 -18 2 -11 5 46
13 32 -10 12 -30 32 20 0

MobilenetV1/Conv2d_6_depthwise/depthwise_weights/read i1 [1, 3, 3, 64]
00000000: d831 7abf 553c 4968 b3bd 56e8 a8eb 4881
00000010: acd2 ddbe 4c93 674d 4895 3b17 3d7f e322
00000020: 48e3 bd52 f608 4eb2 4836 d15b 67ab ddd9
00000030: 44dd e441 29a9 1b46 8143 604a 0f50 617f
00000040: cf5b 7fb6 745b 5e7f 9b8e 46b3 91e5 7fca
00000050: b081 c4bb 73e7 7f69 6e81 5b32 6f7e a67f
00000060: 6897 ac61 c6d1 65ae 66e8 967f 7291 b5d9
00000070: 4eb4 434c 7fd2 e15d 127f 6b65 2768 74fa
00000080: f635 1fd8 4113 2c37 f4b7 0ec6 d91a 4b1a
00000090: e9af ead4 3b52 1b2c 2bbd 1c2f 2e18 c16d
000000a0: 3aa3 e327 c7ca 32d3 25dc ad20 17c9 d4f8
000000b0: 19ea 6b18 400a d423 5951 222c 2020 2985
000000c0: aa60 739e 4d72 5f6a 86be 70c0 b4a3 5ca7
000000d0: 8125 9581 5199 265e 7fb7 4853 466e bf35
000000e0: 6cba a77d bfc4 518d 5e7f 9712 6e87 a143
000000f0: 59a7 2559 be9a 6063 b90a 5d4e 4651 692e
-40 49 122 -65 85 60 73 104
-77 -67 86 -24 -88 -21 72 -127
-84 -46 -35 -66 76 -109 103 77
72 -107 59 23 61 127 -29 34
72 -29 -67 82 -10 8 78 -78
72 54 -47 91 103 -85 -35 -39
68 -35 -28 65 41 -87 27 70
-127 67 96 74 15 80 97 127
-49 91 127 -74 116 91 94 127
-101 -114 70 -77 -111 -27 127 -54
-80 -127 -60 -69 115 -25 127 105
110 -127 91 50 111 126 -90 127
104 -105 -84 97 -58 -47 101 -82
102 -24 -106 127 114 -111 -75 -39
78 -76 67 76 127 -46 -31 93
18 127 107 101 39 104 116 -6
-10 53 31 -40 65 19 44 55
-12 -73 14 -58 -39 26 75 26
-23 -81 -22 -44 59 82 27 44
43 -67 28 47 46 24 -63 109
58 -93 -29 39 -57 -54 50 -45
37 -36 -83 32 23 -55 -44 -8
25 -22 107 24 64 10 -44 35
89 81 34 44 32 32 41 -123
-86 96 115 -98 77 114 95 106
-122 -66 112 -64 -76 -93 92 -89
-127 37 -107 -127 81 -103 38 94
127 -73 72 83 70 110 -65 53
108 -70 -89 125 -65 -60 81 -115
94 127 -105 18 110 -121 -95 67
89 -89 37 89 -66 -102 96 99
-71 10 93 78 70 81 105 46

MobilenetV1/Conv2d_6_pointwise/weights/read i1 [128, 1, 1, 64]
00000000: 350c c204 561a 142f 49e0 1100 14df fb14
00000010: 07ed 614f 0800 29f1 d70d 9db3 0a36 0081
00000020: 950e 0108 18da eb46 2146 c0e6 3528 2c00
00000030: 1de5 c1fa 3fd3 0a12 04f0 d8e6 ce42 fa0f
00000040: e304 7f1c eada bbde dbe1 4133 fd27 42d1
00000050: c6e0 e1ed 250e f0fb 130c 4115 4b20 16ae
00000060: 1ae9 eef8 17fc 24b2 0dfd 2a12 bff4 e641
00000070: bae8 4d0c 61dd ffb4 e5c5 1feb f8e1 af01
00000080: f715 eeeb ec08 f5e4 fee1 e8f2 06d9 11fa
00000090: 1703 ea14 ef1b eb0b dbd0 1b0d 7f13 16f7
000000a0: cbe0 160d cbd6 04df 3124 f816 51d1 f513
000000b0: 09d7 eaf4 1009 1221 0df7 cde8 d623 1d2b
000000c0: d901 1d11 f37f 08f4 060d 0209 d8f1 1b02
000000d0: e726 14e3 e3fd 03f1 f01a 25ec 07e7 1ff4
000000e0: d1b1 ea12 0619 30d5 1ef5 ef22 09ea 1fff
000000f0: f4f7 01f2 1b0c 1617 0ef7 e2d4 0eda d41c
53 12 -62 4 86 26 20 47
73 -32 17 0 20 -33 -5 20
7 -19 97 79 8 0 41 -15
-41 13 -99 -77 10 54 0 -127
-107 14 1 8 24 -38 -21 70
33 70 -64 -26 53 40 44 0
29 -27 -63 -6 63 -45 10 18
4 -16 -40 -26 -50 66 -6 15
-29 4 127 28 -22 -38 -69 -34
-37 -31 65 51 -3 39 66 -47
-58 -32 -31 -19 37 14 -16 -5
19 12 65 21 75 32 22 -82
26 -23 -18 -8 23 -4 36 -78
13 -3 42 18 -65 -12 -26 65
-70 -24 77 12 97 -35 -1 -76
-27 -59 31 -21 -8 -31 -81 1
-9 21 -18 -21 -20 8 -11 -28
-2 -31 -24 -14 6 -39 17 -6
23 3 -22 20 -17 27 -21 11
-37 -48 27 13 127 19 22 -9
-53 -32 22 13 -53 -42 4 -33
49 36 -8 22 81 -47 -11 19
9 -41 -22 -12 16 9 18 33
13 -9 -51 -24 -42 35 29 43
-39 1 29 17 -13 127 8 -12
6 13 2 9 -40 -15 27 2
-25 38 20 -29 -29 -3 3 -15
-16 26 37 -20 7 -25 31 -12
-47 -79 -22 18 6 25 48 -43
30 -11 -17 34 9 -22 31 -1
-12 -9 1 -14 27 12 22 23
14 -9 -30 -44 14 -38 -44 28

MobilenetV1/Conv2d_7_depthwise/depthwise_weights/read i1 [1, 3, 3, 128]
00000000: a6de f3a5 dedb c4f3 2ad5 df81 02e1 d80c
00000010: c819 ca11 c6d7 377f 23d5 0a10 8115 ab9c
00000020: ef9b 94e8 b23f 51e5 0c23 ed32 b781 8517
00000030: 030c b9ba 81fb 0deb 107f 35ee 00bb 08e8
00000040: e6e3 e4d9 327f 36e2 2848 dce6 8cc4 49ae
00000050: c9f4 f2e8 ee7f f3a1 a6ec 0756 7ff8 39b6
00000060: df05 64dd 6318 eaba ea73 3299 4102 09ee
00000070: e205 ebde edfe 04cd f899 5ae1 cb32 33ae
00000080: 3b41 033a 8442 81b6 570e a64a 0dcd 348e
00000090: 7f7f 57e8 16cb 7f35 d5b4 275d ad8f e4b9
000000a0: 35cd c9fb 9f7f 7fb4 69d2 627f b1d6 d4d0
000000b0: 7f29 edd9 7003 adc7 175a 2ee1 0124 b817
000000c0: d1f4 e561 59ed f011 7fe5 1db7 f991 43f8
000000d0: e9ac f49c ab65 2353 d4fb 4cdc 65a5 49d6
000000e0: 227f 7fd0 bbd4 0f81 817f e281 26cc 7f10
000000f0: c4f9 8cff d2d8 7fcf d381 7f81 cb7f 7f81
-90 -34 -13 -91 -34 -37 -60 -13
42 -43 -33 -127 2 -31 -40 12
-56 25 -54 17 -58 -41 55 127
35 -43 10 16 -127 21 -85 -100
-17 -101 -108 -24 -78 63 81 -27
12 35 -19 50 -73 -127 -123 23
3 12 -71 -70 -127 -5 13 -21
16 127 53 -18 0 -69 8 -24
-26 -29 -28 -39 50 127 54 -30
40 72 -36 -26 -116 -60 73 -82
-55 -12 -14 -24 -18 127 -13 -95
-90 -20 7 86 127 -8 57 -74
-33 5 100 -35 99 24 -22 -70
-22 115 50 -103 65 2 9 -18
-30 5 -21 -34 -19 -2 4 -51
-8 -103 90 -31 -53 50 51 -82
59 65 3 58 -124 66 -127 -74
87 14 -90 74 13 -51 52 -114
127 127 87 -24 22 -53 127 53
-43 -76 39 93 -83 -113 -28 -71
53 -51 -55 -5 -97 127 127 -76
105 -46 98 127 -79 -42 -44 -48
127 41 -19 -39 112 3 -83 -57
23 90 46 -31 1 36 -72 23
-47 -12 -27 97 89 -19 -16 17
127 -27 29 -73 -7 -111 67 -8
-23 -84 -12 -100 -85 101 35 83
-44 -5 76 -36 101 -91 73 -42
34 127 127 -48 -69 -44 15 -127
-127 127 -30 -127 38 -52 127 16
-60 -7 -116 -1 -46 -40 127 -49
-45 -127 127 -127 -53 127 127 -127

MobilenetV1/Conv2d_7_pointwise/weights/read i1 [128, 1, 1, 128]
00000000: bacf 85ce 0c9f ffeb 0ca5 daeb 12da f060
00000010: f800 f09f e609 efed 02f9 4fe9 44ae 5c4d
00000020: f2e7 d931 f8d0 d32d 03dc 0036 0eff fb1a
00000030: 5d7c bef5 d11e 3250 2b1c 02df 493c 211a
00000040: f7fc 4803 dafd 01f7 5819 222e 0fd8 b03f
00000050: 2506 81f7 cf22 2834 c8f4 e5ff c132 fa0c
00000060: 6220 0af5 4ccc ccd5 e905 4541 173c e1fe
00000070: 1a25 2c03 fa21 dbdc 02ec f914 090d 23be
00000080: e500 232b 020c f61c c5ec 365e 1e09 00ff
00000090: b343 a204 3bf5 d3d4 390a dd00 f1fe 0dd2
000000a0: f5f1 24cd e762 0307 ec04 cf16 f0bd 37f4
000000b0: f5df 8115 f7f8 beda d2dd d6d5 e2fa f610
000000c0: 21e0 30d1 18fd 0bd7 ded9 dec3 2ef8 ddcd
000000d0: 1312 0b0f ed0e e6e4 d332 0229 1ed8 e6ca
000000e0: f407 2b1e 110a f9ce 4cd1 1c24 ea11 f10f
000000f0: c412 f849 0641 011c ece5 e51d fd2c dedb
-70 -49 -123 -50 12 -97 -1 -21
12 -91 -38 -21 18 -38 -16 96
-8 0 -16 -97 -26 9 -17 -19
2 -7 79 -23 68 -82 92 77
-14 -25 -39 49 -8 -48 -45 45
3 -36 0 54 14 -1 -5 26
93 124 -66 -11 -47 30 50 80
43 28 2 -33 73 60 33 26
-9 -4 72 3 -38 -3 1 -9
88 25 34 46 15 -40 -80 63
37 6 -127 -9 -49 34 40 52
-56 -12 -27 -1 -63 50 -6 12
98 32 10 -11 76 -52 -52 -43
-23 5 69 65 23 60 -31 -2
26 37 44 3 -6 33 -37 -36
2 -20 -7 20 9 13 35 -66
-27 0 35 43 2 12 -10 28
-59 -20 54 94 30 9 0 -1
-77 67 -94 4 59 -11 -45 -44
57 10 -35 0 -15 -2 13 -46
-11 -15 36 -51 -25 98 3 7
-20 4 -49 22 -16 -67 55 -12
-11 -33 -127 21 -9 -8 -66 -38
-46 -35 -42 -43 -30 -6 -10 16
33 -32 48 -47 24 -3 11 -41
-34 -39 -34 -61 46 -8 -35 -51
19 18 11 15 -19 14 -26 -28
-45 50 2 41 30 -40 -26 -54
-12 7 43 30 17 10 -7 -50
76 -47 28 36 -22 17 -15 15
-60 18 -8 73 6 65 1 28
-20 -27 -27 29 -3 44 -34 -37

MobilenetV1/Conv2d_8_depthwise/depthwise_weights/read i1 [1, 3, 3, 128]
00000000: 81d9 b181 510d 5642 a472 e6d3 0e5e ae23
00000010: d17f 4ae6 0b0f 24b8 6038 f13c f2eb edf8
00000020: e337 d914 4035 a91c 982c 7f7f be27 2237
00000030: e3dd 54ce 9d11 f6f4 2bf3 406d 0bf5 7fab
00000040: ac0b af81 f56e f4d1 d081 db44 9199 27bc
00000050: 46a7 d620 0ca1 812e bada c82b d6a1 dd15
00000060: 12df 264d e2e8 ebe7 08d4 b5d2 a07f b04b
00000070: e095 b9c3 b6cf c3c5 adeb 12d4 2f0a b15e
00000080: 5d7f 1ebb 49c0 107f ea8a a74b 477f 407f
00000090: a546 f6da 272f 3adc b67f 596e f01b 2b76
000000a0: 1b72 8f77 7ff3 eb06 b2dc 2238 405e 591e
000000b0: 496d e0e8 097f 347f 7f3f 5234 7f99 39f0
000000c0: d02b b696 8762 d991 938a 3d0a 8bf9 977f
000000d0: 7fb0 0472 4db1 227f ae34 f13a d181 aca0
000000e0: 277f 267f a1c0 a77f 81c8 8118 addc 9d0c
000000f0: 51d5 b4f0 b0df 16f0 8792 f31a 7f8c 8355
-127 -39 -79 -127 81 13 86 66
-92 114 -26 -45 14 94 -82 35
-47 127 74 -26 11 15 36 -72
96 56 -15 60 -14 -21 -19 -8
-29 55 -39 20 64 53 -87 28
-104 44 127 127 -66 39 34 55
-29 -35 84 -50 -99 17 -10 -12
43 -13 64 109 11 -11 127 -85
-84 11 -81 -127 -11 110 -12 -47
-48 -127 -37 68 -111 -103 39 -68
70 -89 -42 32 12 -95 -127 46
-70 -38 -56 43 -42 -95 -35 21
18 -33 38 77 -30 -24 -21 -25
8 -44 -75 -46 -96 127 -80 75
-32 -107 -71 -61 -74 -49 -61 -59
-83 -21 18 -44 47 10 -79 94
93 127 30 -69 73 -64 16 127
-22 -118 -89 75 71 127 64 127
-91 70 -10 -38 39 47 58 -36
-74 127 89 110 -16 27 43 118
27 114 -113 119 127 -13 -21 6
-78 -36 34 56 64 94 89 30
73 109 -32 -24 9 127 52 127
127 63 82 52 127 -103 57 -16
-48 43 -74 -106 -121 98 -39 -111
-109 -118 61 10 -117 -7 -105 127
127 -80 4 114 77 -79 34 127
-82 52 -15 58 -47 -127 -84 -96
39 127 38 127 -95 -64 -89 127
-127 -56 -127 24 -83 -36 -99 12
81 -43 -76 -16 -80 -33 22 -16
-121 -110 -13 26 127 -116 -125 85

MobilenetV1/Conv2d_8_pointwise/weights/read i1 [128, 1, 1, 128]
00000000: 40c0 32f7 38ec f3e0 99c8 0a05 b22f 1cc9
00000010: 08e5 0b19 0512 0529 cc12 eff6 37e9 c1e6
00000020: f2ef 28e8 d4f8 14c6 4123 0659 2609 f3eb
00000030: dc44 fadc cad0 1231 37e9 f50d 0307 b4e7
00000040: fef1 a462 f53c 36f1 2706 c60f 2cd8 ddf9
00000050: 034c 0bb0 a924 fd81 3196 ce63 ca17 5833
00000060: 0d12 cac6 48ae eb49 e8e0 4308 40b6 c88f
00000070: 3d5b ccf6 5663 f50a 0dd9 99e4 06de 24d3
00000080: 0d21 392f 8112 41af 0af2 d3cf db1f 04f1
00000090: 043c 1a53 3116 e91c e326 32bb f101 0134
000000a0: c208 121b 67fb 40de c6dd 6bc5 0f01 b9d6
000000b0: faf5 28e4 15e9 0835 5f29 bef6 0302 aa3a
000000c0: 0609 c62c f5c7 0925 dfee 063f 2508 20f0
000000d0: e69c fca8 df07 48dd aded fa06 e5d6 b627
000000e0: b81c 1f40 29f5 1914 e8e5 339a 260e 47e2
000000f0: cf0c 0039 e82a 2b0e e129 66f5 f9c3 decf
64 -64 50 -9 56 -20 -13 -32
-103 -56 10 5 -78 47 28 -55
8 -27 11 25 5 18 5 41
-52 18 -17 -10 55 -23 -63 -26
-14 -17 40 -24 -44 -8 20 -58
65 35 6 89 38 9 -13 -21
-36 68 -6 -36 -54 -48 18 49
55 -23 -11 13 3 7 -76 -25
-2 -15 -92 98 -11 60 54 -15
39 6 -58 15 44 -40 -35 -7
3 76 11 -80 -87 36 -3 -127
49 -106 -50 99 -54 23 88 51
13 18 -54 -58 72 -82 -21 73
-24 -32 67 8 64 -74 -56 -113
61 91 -52 -10 86 99 -11 10
13 -39 -103 -28 6 -34 36 -45
13 33 57 47 -127 18 65 -81
10 -14 -45 -49 -37 31 4 -15
4 60 26 83 49 22 -23 28
-29 38 50 -69 -15 1 1 52
-62 8 18 27 103 -5 64 -34
-58 -35 107 -59 15 1 -71 -42
-6 -11 40 -28 21 -23 8 53
95 41 -66 -10 3 2 -86 58
6 9 -58 44 -11 -57 9 37
-33 -18 6 63 37 8 32 -16
-26 -100 -4 -88 -33 7 72 -35
-83 -19 -6 6 -27 -42 -74 39
-72 28 31 64 41 -11 25 20
-24 -27 51 -102 38 14 71 -30
-49 12 0 57 -24 42 43 14
-31 41 102 -11 -7 -61 -34 -49

MobilenetV1/Conv2d_9_depthwise/depthwise_weights/read i1 [1, 3, 3, 128]
00000000: 5eac 7e7f dcf2 cc39 8c81 5ea5 a77f bd37
00000010: 451b f374 7f1e c4fb 00be fcfa 0322 7f59
00000020: 38ac 75eb 56a8 9e00 9a99 f4a2 5f08 7f44
00000030: c901 360d dec2 bfa4 017f f81a d2ec 0141
00000040: 410f 0cd8 05d6 4f81 372e 637f 2e1c d1ab
00000050: be52 b37f 7f14 a3e0 ad7f c169 c3c7 f771
00000060: c6af 8125 7f75 18c4 cfdd 4f1d 9b04 a4e9
00000070: 81b0 3189 4f1f 144d 7824 817f fb81 f5e8
00000080: 4fc5 7f10 2650 cee5 f400 0cac d64f 5042
00000090: 7f0d e735 3cfd 4bf1 ae18 fbc9 1fe3 523d
000000a0: 7fe8 447f 3ad7 e13d 8bba c457 3b1d 1b26
000000b0: 8e45 3bcd 4dcc 14b0 2e60 edf8 b0fe f930
000000c0: fc22 7cc0 1570 7020 7f9c 4d06 11c8 b5c7
000000d0: c12a b851 1b4e bd9d 5e30 d347 c549 e920
000000e0: c72c f059 df47 2ed5 9e9e a7d1 81f9 d715
000000f0: 9ca6 6dfe 7f79 7fd7 7f4f df7a 00bf 7fd6
94 -84 126 127 -36 -14 -52 57
-116 -127 94 -91 -89 127 -67 55
69 27 -13 116 127 30 -60 -5
0 -66 -4 -6 3 34 127 89
56 -84 117 -21 86 -88 -98 0
-102 -103 -12 -94 95 8 127 68
-55 1 54 13 -34 -62 -65 -92
1 127 -8 26 -46 -20 1 65
65 15 12 -40 5 -42 79 -127
55 46 99 127 46 28 -47 -85
-66 82 -77 127 127 20 -93 -32
-83 127 -63 105 -61 -57 -9 113
-58 -81 -127 37 127 117 24 -60
-49 -35 79 29 -101 4 -92 -23
-127 -80 49 -119 79 31 20 77
120 36 -127 127 -5 -127 -11 -24
79 -59 127 16 38 80 -50 -27
-12 0 12 -84 -42 79 80 66
127 13 -25 53 60 -3 75 -15
-82 24 -5 -55 31 -29 82 61
127 -24 68 127 58 -41 -31 61
-117 -70 -60 87 59 29 27 38
-114 69 59 -51 77 -52 20 -80
46 96 -19 -8 -80 -2 -7 48
-4 34 124 -64 21 112 112 32
127 -100 77 6 17 -56 -75 -57
-63 42 -72 81 27 78 -67 -99
94 48 -45 71 -59 73 -23 32
-57 44 -16 89 -33 71 46 -43
-98 -98 -89 -47 -127 -7 -41 21
-100 -90 109 -2 127 121 127 -41
127 79 -33 122 0 -65 127 -42

MobilenetV1/Conv2d_9_pointwise/weights/read i1 [128, 1, 1, 128]
00000000: db02 209a 2514 197f c56c fed7 27d0 05ef
00000010: 21db 5cc6 0f08 f801 2aff cbf5 e128 a594
00000020: 45fd ddf7 d6fb 18da 0af8 ec23 e228 d73a
00000030: 1115 150d e2b6 0af1 9fab f4ed 180e 0fef
00000040: f1ea eb11 f5bd fdf0 521f dde3 cdc3 10c0
00000050: dde6 0133 fa1b 6ab7 1aeb 430e 3207 ede0
00000060: dd2c 2ce9 c917 fa1e 4b7f 28ef 51ed 9d57
00000070: 6ae6 cb1d ba20 b67c 1c06 f2b2 fb2b 131a
00000080: cd03 ceda b927 3805 e933 2bf9 4e32 bbe8
00000090: 15ae 3118 ce47 1ef7 3be2 0223 cf08 f4e4
000000a0: f723 e92f bbde e9e4 f71b 0119 f558 4206
000000b0: 0412 087f 0d2c 060e 06ee e220 b7e0 f41e
000000c0: f6c9 1b10 f664 e0cc dc14 2d30 fdc3 2121
000000d0: cdc6 f310 12ec 01dc e9de 23e0 1a23 fa24
000000e0: e71b 0f11 0f37 dcee 110a 1673 f1cf d420
000000f0: f64d 1d0d 2509 0ec4 f6d0 e234 e4f1 f9e1
-37 2 32 -102 37 20 25 127
-59 108 -2 -41 39 -48 5 -17
33 -37 92 -58 15 8 -8 1
42 -1 -53 -11 -31 40 -91 -108
69 -3 -35 -9 -42 -5 24 -38
10 -8 -20 35 -30 40 -41 58
17 21 21 13 -30 -74 10 -15
-97 -85 -12 -19 24 14 15 -17
-15 -22 -21 17 -11 -67 -3 -16
82 31 -35 -29 -51 -61 16 -64
-35 -26 1 51 -6 27 106 -73
26 -21 67 14 50 7 -19 -32
-35 44 44 -23 -55 23 -6 30
75 127 40 -17 81 -19 -99 87
106 -26 -53 29 -70 32 -74 124
28 6 -14 -78 -5 43 19 26
-51 3 -50 -38 -71 39 56 5
-23 51 43 -7 78 50 -69 -24
21 -82 49 24 -50 71 30 -9
59 -30 2 35 -49 8 -12 -28
-9 35 -23 47 -69 -34 -23 -28
-9 27 1 25 -11 88 66 6
4 18 8 127 13 44 6 14
6 -18 -30 32 -73 -32 -12 30
-10 -55 27 16 -10 100 -32 -52
-36 20 45 48 -3 -61 33 33
-51 -58 -13 16 18 -20 1 -36
-23 -34 35 -32 26 35 -6 36
-25 27 15 17 15 55 -36 -18
17 10 22 115 -15 -49 -44 32
-10 77 29 13 37 9 14 -60
-10 -48 -30 52 -28 -15 -7 -31

MobilenetV1/Logits/Conv2d_1c_1x1/weights/read i1 [2, 1, 1, 256]
00000000: f125 baa3 e0eb bd28 ce20 c9fb 3728 43ea
00000010: 70a9 e02c e19e 5fc9 52d2 2821 cbef c208
00000020: 13c5 29fa 40fa 0dfd db16 5043 b5f1 5ddc
00000030: 2d42 0dd9 9422 ae1f 3113 cccf c2a6 81c5
00000040: aa17 afef d40c abb2 a812 36a5 3cd4 bfbb
00000050: ca0f af14 b6db b0cb b18b 31d0 19cd ab47
00000060: 16b8 29a8 fa82 59a5 adb2 a6de bfbd 17cf
00000070: b91a cd17 c4e2 d0e2 2fc8 bf3e d4be aee6
00000080: 031b 2e47 a0e2 b4c4 28b1 b7e4 1800 cb18
00000090: 3aea 0122 e1b8 d9fd bbd3 d5c7 dec1 f8ab
000000a0: ab44 b708 d9d2 c9fe a41a d8c5 229a 48d6
000000b0: 3038 1e38 b8eb 1f10 d8be 15de 240d 14a7
000000c0: 97ab 26eb e79b d4b2 f3c8 5d33 0fce c5ce
000000d0: aa50 bc1e 11be dee2 c6ee baf4 e90e 9730
000000e0: 3f01 d85c 0fec 22e0 3ebb d839 c1b3 0215
000000f0: d017 f932 c6cf b2bc 20bb d3c7 2cb9 d72f
-15 37 -70 -93 -32 -21 -67 40
-50 32 -55 -5 55 40 67 -22
112 -87 -32 44 -31 -98 95 -55
82 -46 40 33 -53 -17 -62 8
19 -59 41 -6 64 -6 13 -3
-37 22 80 67 -75 -15 93 -36
45 66 13 -39 -108 34 -82 31
49 19 -52 -49 -62 -90 -127 -59
-86 23 -81 -17 -44 12 -85 -78
-88 18 54 -91 60 -44 -65 -69
-54 15 -81 20 -74 -37 -80 -53
-79 -117 49 -48 25 -51 -85 71
22 -72 41 -88 -6 -126 89 -91
-83 -78 -90 -34 -65 -67 23 -49
-71 26 -51 23 -60 -30 -48 -30
47 -56 -65 62 -44 -66 -82 -26
3 27 46 71 -96 -30 -76 -60
40 -79 -73 -28 24 0 -53 24
58 -22 1 34 -31 -72 -39 -3
-69 -45 -43 -57 -34 -63 -8 -85
-85 68 -73 8 -39 -46 -55 -2
-92 26 -40 -59 34 -102 72 -42
48 56 30 56 -72 -21 31 16
-40 -66 21 -34 36 13 20 -89
-105 -85 38 -21 -25 -101 -44 -78
-13 -56 93 51 15 -50 -59 -50
-86 80 -68 30 17 -66 -34 -30
-58 -18 -70 -12 -23 14 -105 48
63 1 -40 92 15 -20 34 -32
62 -69 -40 57 -63 -77 2 21
-48 23 -7 50 -58 -49 -78 -68
32 -69 -45 -57 44 -71 -41 47
