components/ai/onnx/examples/model/mnist-sm.onnx (onnx, 3734 bytes, 8 tensors)

W f4 [4, 10]
0	0x3f0ede90	0.55808353
1	0x3f497dac	0.78707385
2	0xbd27e605	-0.040990848
3	0xbdfae6fe	-0.122510895
4	0xbed34233	-0.41261443
5	0xbd13a2e0	-0.036044
6	0x3e2d3727	0.1691557
7	0xbe16a51e	-0.14711425
8	0xbc86682a	-0.016407091
9	0xbe8fa870	-0.28058195
10	0x3c99ba2e	0.018765535
11	0x3d80e499	0.062936015
12	0x3efdc1fd	0.49562064
13	0x3eadbb04	0.33931744
14	0xbef3713f	-0.47547337
15	0xbe0ff0d9	-0.1405672
16	0xbf61f9b6	-0.88271654
17	0x3e3c016a	0.18359914
18	0x3cab1b4f	0.020887045
19	0xbe0d21d3	-0.13782434
20	0xbd5604b3	-0.052250575
21	0x3f2de169	0.67922074
22	0xbe8f7a43	-0.28022966
23	0xbea025dd	-0.31278887
24	0x3ee369cf	0.44416663
25	0xbe85aad0	-0.26106882
26	0xbea4f74c	-0.32219923
27	0x3f841d24	1.0321393
28	0xbe13e7ec	-0.1444394
29	0x3f05ad5e	0.5221766
30	0x3d6be43c	0.057590708
31	0xbf772990	-0.96547794
32	0xbe9c3f16	-0.3051688
33	0x3e2ca30e	0.16859075
34	0xbf0834fc	-0.5320585
35	0x3eda8bb6	0.42684716
36	0xbf0b1c90	-0.5434046
37	0x3c70bdff	0.014693736
38	0x3e893160	0.26795483
39	0x3e230a58	0.15921915

B f4 [10]
0	0x3d29bfc4	0.041442648
1	0x3fbb100a	1.461427
2	0x3d9286ed	0.07154641
3	0xbfa38450	-1.2774754
4	0x3f4f2cb7	0.80927604
5	0xbfd8c065	-1.6933714
6	0xbe984592	-0.29740578
7	0xbdf121c9	-0.11774022
8	0x3ea895d7	0.3292682
9	0x3f28e1d3	0.6596958

W1 f4 [98, 4]
0	0x3e21b5c2	0.15791991
1	0xbe67ef4c	-0.22649878
2	0x3cadb58e	0.021204736
3	0x3cd1a99c	0.025593571
4	0x3c0f73bc	0.008755621
5	0xbf466d16	-0.775102
6	0xbed4f634	-0.41594088
7	0xbe00d257	-0.12580238
8	0xbecaf18c	-0.3963741
9	0x3eabc0c8	0.33545518
10	0xbf21c7ac	-0.631953
11	0xbceb8e86	-0.028754484
12	0xbf01b63e	-0.50668705
13	0xbeb6fd6f	-0.3574023
14	0xc071f86b	-3.7807872
15	0xbf537f55	-0.8261617
16	0x3dd16670	0.102246165
17	0x3f123561	0.571127
18	0xbf202945	-0.6256297
19	0x3d8930e8	0.06698781
20	0x3f0f4828	0.55969477
21	0x3e81eb3d	0.25374785
22	0xc044dc9c	-3.075965
23	0xbf322760	-0.6959133
24	0x3e81a2f9	0.2531965
25	0x3ea281ff	0.31739804
26	0xbf5dcdf3	-0.8664238
27	0x3e029105	0.12750633
28	0x3f54d40f	0.83136076
29	0x3e888752	0.2666574
30	0xc0258aba	-2.5865922
31	0xbf1270a0	-0.572031
32	0x3e984a0a	0.29743987
33	0x3e264703	0.16238026
34	0xbf7dd5a9	-0.99154145
35	0x3d9fb0bb	0.077973805
36	0x3f642e65	0.8913329
37	0x3e2c95e7	0.16854058
38	0xc0219600	-2.5247803
39	0xbf105c77	-0.5639109
40	0x3ed55b5c	0.41671264
41	0xbddd3482	-0.10801031
42	0xbf82f139	-1.0229865
43	0x3e5326e8	0.2062031
44	0x3ecc3bb8	0.39889312
45	0xbe241d1d	-0.16026731
46	0xbff59322	-1.9185526
47	0xbef7af05	-0.48375717
48	0x3d6add25	0.057339806
49	0xbfa0ef65	-1.2573057
50	0xbe6cb862	-0.23117211
51	0x3f86a327	1.051854
52	0xbf4c56c8	-0.7981992
53	0xbfd02a9f	-1.6263007
54	0xbe852325	-0.26003376
55	0xbd9ca8b4	-0.07649365
56	0xbeede109	-0.4646075
57	0x3f417d7c	0.755821
58	0x3e070b13	0.13187818
59	0x3e7d5edf	0.24743222
60	0xbfc38b0f	-1.5276812
61	0x3e27954f	0.1636555
62	0xbd9a8d9e	-0.075465426
63	0xbd6fb071	-0.058517877
64	0xbead52a9	-0.33852127
65	0x3fa7127c	1.3052516
66	0x3e13e6dc	0.14443535
67	0x3ee1b1b6	0.44080895
68	0xbe9ee188	-0.31031442
69	0x3e1ddc2a	0.15416017
70	0x3bafd64c	0.0053661224
71	0xbd020fb5	-0.03175326
72	0xbe23c082	-0.15991405
73	0x3f2945ac	0.66121936
74	0x3daa6fd3	0.0832211
75	0x3e87c819	0.2651985
76	0xbd1d7937	-0.038445678
77	0x3e38dfc9	0.18054117
78	0xbbf00786	-0.0073251156
79	0x3d5dfa33	0.054193687
80	0xbc6a3d9d	-0.014296916
81	0x3e9cf7c5	0.30657783
82	0x3bca9210	0.006181963
83	0x3e648e60	0.22319937
84	0x3cf8590c	0.030315898
85	0x3e01ffe6	0.12695274
86	0xbce6d90f	-0.028179673
87	0x3de526ba	0.11189027
88	0x3d10d3f4	0.035358384
89	0x3d3febf7	0.046855893
90	0xbcd9523d	-0.026528472
91	0x3e876d31	0.26450494
92	0x3d8f523d	0.069981076
93	0x3ddb7294	0.107152134
94	0xbcf8cdaa	-0.030371506
95	0x3dc30f1c	0.09524366
96	0x3e7df9d6	0.24802336
97	0xbebadd22	-0.36496836
98	0xbdd2750f	-0.102762334
99	0x3efdff88	0.49609017
100	0x3d23f40e	0.04002767
101	0x3cab7fbc	0.020934932
102	0xbd605a47	-0.054773595
103	0x3d5dadce	0.05412083
104	0xbd933400	-0.071876526
105	0xbfc4e0e5	-1.5381132
106	0xbe714c2a	-0.2356421
107	0x3fcb66f3	1.5890793
108	0xbcbd22bc	-0.023087852
109	0xbe7f528e	-0.24933836
110	0x3c99c75b	0.018771818
111	0x3da4a917	0.08040064
112	0x3d54c637	0.051946845
113	0x3f1d3ac8	0.6141782
114	0x3e219863	0.15780787
115	0x3e03f69d	0.12887044
116	0xbf5e7db4	-0.8691056
117	0x3fb025ce	1.3761537
118	0x3edc74fb	0.43058
119	0x3e0a00c0	0.13476849
120	0xbe19541f	-0.14973496
121	0x3ee89536	0.4542634
122	0x3e05e9e0	0.13077497
123	0x3e6cb9fc	0.23117822
124	0x3b6fb0c1	0.003657386
125	0x3edad7bb	0.42742714
126	0x3e6f950b	0.23396699
127	0x3dbc9c6a	0.09209521
128	0xbd76d212	-0.060258932
129	0x3eedb6ca	0.4642852
130	0x3dd4e5d8	0.10395402
131	0x3e803dbb	0.25047097
132	0xbd5a29e5	-0.05326261
133	0x3e5bd1f0	0.21466804
134	0x3def7fa6	0.11694269
135	0x3e656729	0.22402634
136	0x3e016ec2	0.12639907
137	0x3e7098f5	0.23495848
138	0x3e02c52a	0.12770525
139	0x3eaa3659	0.3324459
140	0x3c65bdef	0.0140223345
141	0x3dd9cd2c	0.106348366
142	0x3ddec6a6	0.10877733
143	0x3e9c45ee	0.30522102
144	0x3ea0d4ca	0.31412345
145	0xbd92b816	-0.07164018
146	0x3e0a11fb	0.13483422
147	0x3ee8864a	0.45414954
148	0x3d600bc8	0.054698735
149	0x3d989cf9	0.07451815
150	0x3dc74bfd	0.097312905
151	0x3e8cb37b	0.27480683
152	0x3ef9250d	0.4866108
153	0xbedf6bbd	-0.43636885
154	0xbe0b1f17	-0.13586079
155	0x3f128d9b	0.5724732
156	0x3e0b390f	0.13595985
157	0xbbf43501	-0.0074526076
158	0x3df2e3a9	0.11859829
159	0x3e7aaf92	0.24481037
160	0xbec031a9	-0.37537888
161	0xbef0037c	-0.46877658
162	0xbf109a3a	-0.5648533
163	0x3f5da408	0.86578417
164	0x3eae7539	0.3407381
165	0xbe3045d2	-0.17214134
166	0x3d26a3cc	0.040683553
167	0x3eb9e1f0	0.3630519
168	0x3db76516	0.089548275
169	0xbeff7605	-0.4989473
170	0x3ef42a9f	0.47688767
171	0x3cb20544	0.021731026
172	0x3e924056	0.2856471
173	0x3f1e129d	0.6174715
174	0x3f34b6d5	0.7059148
175	0xbe9cdae6	-0.30635756
176	0xbf120f16	-0.5705427
177	0xbe53e483	-0.20692639
178	0x3d2b9f67	0.041900065
179	0x3e6bee2a	0.23040071
180	0xbe37588b	-0.1790487
181	0xbcc291f9	-0.023751246
182	0x3e1088a7	0.14114629
183	0x3cc0202c	0.02345284
184	0xbf244b85	-0.64177734
185	0xbd8f2ce2	-0.069909826
186	0xbdafe1b5	-0.08587972
187	0x3e288f0e	0.16460821
188	0xbf08dfd1	-0.53466517
189	0xbdd02566	-0.10163383
190	0xbe0658d0	-0.13119817
191	0x3e18aa56	0.14908728
192	0xbf2291ca	-0.63503706
193	0xbdcaac86	-0.098961875
194	0xbe6e107b	-0.23248474
195	0x3e1dc2ba	0.15406314
196	0xbef8c3b5	-0.48586813
197	0xbe430ae9	-0.1904713
198	0xbe5193fc	-0.20466608
199	0x3dd9b1e1	0.10629631
200	0xbf0778ce	-0.5291871
201	0xbe31c162	-0.17358926
202	0xbeb9b7e3	-0.36273107
203	0x3dfa6184	0.12225631
204	0xbec5efb6	-0.38659447
205	0xbe7dd22d	-0.24787207
206	0xbe812738	-0.25225234
207	0x3dd2329f	0.102635615
208	0xbe148d52	-0.14507034
209	0xbdcf11ad	-0.10110793
210	0x3d333b2a	0.043757595
211	0xbe2fb31a	-0.17158166
212	0xbd0061f1	-0.031343404
213	0xbe9a5004	-0.30139172
214	0xbdc08bcd	-0.09401665
215	0x3d8f13a5	0.06986169
216	0xbf0c956d	-0.54915506
217	0x3f2b1e87	0.66843456
218	0x3e153dd1	0.14574362
219	0xbf3cccee	-0.737502
220	0x3f4520b8	0.7700305
221	0xbed338fb	-0.4125441
222	0x3dcf286e	0.10115133
223	0x3d585155	0.05281194
224	0x3e826499	0.25467375
225	0x3e690a27	0.22757779
226	0xbcf798bc	-0.030224197
227	0xbdaa6613	-0.0832025
228	0xbf29f27c	-0.66385627
229	0x3f0322f5	0.51225215
230	0xbdf7db09	-0.121023245
231	0xbeab09a3	-0.3340579
232	0xbd99b58d	-0.07505331
233	0xbdc91f00	-0.09820366
234	0xbc8368b2	-0.016041134
235	0xbd029076	-0.03187605
236	0xbedf2d4c	-0.43589246
237	0x3dc151d0	0.094394326
238	0xbd4c1b3c	-0.04983066
239	0xbd9f50ae	-0.0777906
240	0xbe034e5d	-0.12822862
241	0xbdb7a36e	-0.089667186
242	0xbd8fa944	-0.07014707
243	0xbc30da23	-0.010794195
244	0xbe94f7cd	-0.29095307
245	0xbc5824ba	-0.01319235
246	0xbd22d8f9	-0.039757702
247	0xbcbfb886	-0.023403417
248	0xbe1f0721	-0.15530063
249	0xbd555fdf	-0.052093383
250	0xbe174d0f	-0.1477549
251	0xbd9ac972	-0.07557954
252	0xbe898629	-0.2686017
253	0xbd1042e4	-0.035220042
254	0xbdc3d1da	-0.095615104
255	0xbc7d7a2e	-0.015471024

B1 f4 [4]
0	0x3f99d840	1.2019119
1	0xbf96a997	-1.1770505
2	0x400ade78	2.1698284
3	0xbffb1329	-1.9615222

W2 f4 [2, 2, 3, 3]
0	0x3be6d1f0	0.0070440695
1	0x3e6d7de4	0.23192555
2	0x3d16ef7a	0.036849476
3	0xbe166611	-0.14687373
4	0xbe1fad17	-0.15593372
5	0x3b90fced	0.0044246824
6	0x3e8be42a	0.27322513
7	0xbce1cb53	-0.027562773
8	0x3e6fa8c4	0.23404223
9	0xbf22add7	-0.6354651
10	0xbf0e73ce	-0.55645454
11	0xbf454419	-0.77057034
12	0x3e1fc6e9	0.15603222
13	0x3f35cce6	0.71015775
14	0x3e754aa5	0.23954256
15	0x3fe8fa7c	1.8201442
16	0xbc968c58	-0.018377468
17	0x3fc98aba	1.5745461
18	0x3fdc8df8	1.7230825
19	0xbf18bc7e	-0.59662616
20	0x3fb32c22	1.3997843
21	0x3eab9459	0.33511618
22	0x3f11873f	0.56846994
23	0x3ec273fb	0.3797911
24	0x3d0fafd8	0.035079807
25	0xbe3b4366	-0.18287429
26	0xbd04062b	-0.032232445
27	0x3be26ecd	0.006910181
28	0xbb3047e8	-0.0026898328
29	0xbbbd8b1c	-0.0057844054
30	0x3e964b96	0.29354542
31	0x3e0d47b2	0.13796881
32	0x3eb630df	0.3558416
33	0x3b15bb32	0.0022847173
34	0x3b29c79a	0.0025906325
35	0xbcb979cc	-0.022641085

B2 f4 [2]
0	0xbdeeb485	-0.11655525
1	0xbb6f39e4	-0.0036503011

W3 f4 [2, 1, 3, 3]
0	0xbea59081	-0.3233681
1	0xbeda3107	-0.4261553
2	0xbf26e8c2	-0.6519891
3	0x3f4a6610	0.79061985
4	0xbe626190	-0.2210753
5	0x3d17fe7a	0.037107922
6	0x3ecbfd25	0.3984157
7	0x3e62976b	0.22128074
8	0x3f4c2bac	0.7975414
9	0x3e828dda	0.2549885
10	0x3e9d7e82	0.3076058
11	0x3f200024	0.62500215
12	0xbf16eec7	-0.58958095
13	0x3e50a4f7	0.20375429
14	0xbd84a9df	-0.06477713
15	0xbfc873ef	-1.566038
16	0xbec0defc	-0.37670124
17	0xbf24f138	-0.6443057

B3 f4 [2]
0	0xbf5451ca	-0.829373
1	0xbe1058ec	-0.14096421
