components/ai/onnx/examples/model/mnist-lg.onnx (onnx, 5826 bytes, 8 tensors)

W f4 [4, 10]
-0.081571475 0.80314755 0.45014644 0.083562344 0.027939288 -0.25020933 0.09400992 -0.13779171
-0.018377496 -0.27352247 0.37528673 -0.23506221 0.07457948 -0.4619294 0.3026657 -0.06834057
0.682837 -0.5411855 -0.041723695 -0.2726602 0.3507502 -0.2644706 0.45456162 -0.13962935
-0.5689672 -0.32924163 -0.35703853 0.51084876 -0.023246894 0.007097486 -0.10867849 0.24534842
-0.11721993 -0.35635477 0.7641609 -0.32803258 -0.004157963 0.6281825 -0.13465093 0.49604914
00000000: f20e a7bd 149b 4d3f 9879 e63e bc22 ab3d
00000010: efe0 e43c 701b 80be 4688 c03d 4519 0dbe
00000020: 678c 96bc 230b 8cbe 9525 c03e 26b4 70be
00000030: 20bd 983d 0382 ecbe 00f7 9a3e 24f6 8bbd
00000040: 68ce 2e3f 228b 0abf 77e6 2abd 1e9a 8bbe
00000050: 8895 b33e b168 87be 4dbc e83e fffa 0ebe
00000060: d6a7 11bf 5c92 a8be c1cd b6be fcc6 023f
00000070: 4570 bebc 0792 e83b d492 debd 9e3c 7b3e
00000080: 0111 f0bd 2274 b6be 0ca0 433f e3f3 a7be
00000090: 863f 88bb 91d0 203f efe1 09be 27fa fd3e

B f4 [10]
-0.6304059 0.87571794 0.11354593 -0.7660657 0.088512264 -1.3162599 -1.1842374 -0.6374837
2.0242338 0.75246334
00000000: 4862 21bf 0d2f 603f c58a e83d e21c 44bf
00000010: eb45 b53d 347b a8bf 1795 97bf 2232 23bf
00000020: 0c8d 0140 70a1 403f

W1 f4 [196, 4]
0.25584212 1.0769755 -2.3072433 0.5273492 -0.34051406 0.78120565 -0.6315899 0.3959871
0.15456647 0.6652272 -0.68152726 0.32431158 0.8293521 0.7758421 -1.7430341 0.039532576
0.7567744 1.609146 -1.5834707 -0.80860853 1.4509128 1.2464367 0.2830576 -2.4918044
0.46401018 1.3268389 -0.49486482 -1.9651103 0.8417509 0.9147139 -0.61159766 -1.4928526
1.2275571 0.9677725 -0.75851786 -0.92858034 1.0814679 -0.97832817 1.6802753 -3.623118
1.1020342 0.44610372 0.10970083 -2.4653113 1.2646241 0.8602638 -0.39159903 -1.6455303
1.1717958 0.90188515 -0.4226036 -0.7936031 0.10168912 -0.24116051 1.9922682 -1.9410759
0.7046284 0.3578782 0.15280569 -2.2147434 1.1714547 1.5479717 -0.6684965 -1.1453375
0.77766395 0.87499213 -0.6068426 -0.28605586 -1.3859211 2.3044534 -0.5069541 -0.21816158
0.47761387 0.7517793 -0.2911924 -1.5683515 1.5379157 1.824968 -2.1033223 -0.42826545
0.60680556 0.52425724 -1.4001361 0.30332935 -0.09772957 3.4582415 -2.5274777 -0.14239328
-1.2963914 1.3714204 -1.7084373 -1.7912403 0.8515082 2.249982 -2.0323648 -1.3265105
-0.8223234 0.39045936 -2.7110496 -0.19110087 -0.05566442 1.3349717 -1.2187358 1.0532159
-1.246249 0.8498718 -1.8124613 -1.1343253 0.41940638 1.4500419 -1.4287902 -0.9241153
0.4975263 -0.2565588 -0.54395443 0.3482436 0.12591882 -0.09418009 0.014014161 -0.022873698
0.27879524 -0.30387205 -0.07285906 0.10695789 0.027211763 -0.38442034 -0.1633396 -0.011504442
-0.10608486 0.28885958 -0.19194944 0.07210016 0.3899169 -0.90169656 0.66461676 -0.5666597
0.169975 -0.6083231 0.5077011 -0.38613993 -0.53554064 0.30924505 0.27113107 -0.09044991
-0.041727632 0.17814396 -0.06879362 -0.007593564 0.7011127 -1.2478044 1.0484786 -1.0470926
0.17679405 -0.5672453 0.4786677 -0.5174619 -0.75796187 0.587598 0.03737406 0.03775701
0.24504007 0.23826343 -0.108084366 0.018233145 0.39604563 -0.10986654 0.3222151 -0.89569086
-0.0690993 -0.13026622 0.17687204 -0.36805344 0.5466224 0.7709931 -0.82046777 0.23544848
0.5198276 0.2976576 -0.18775311 0.6035212 0.44792694 0.5748945 -0.21162672 -1.3749967
-0.19920297 0.10406496 0.029207688 -0.29232895 0.45831367 0.31575072 -1.0147038 -0.29693183
0.32751998 -0.0068947747 -0.5348932 0.769636 -1.4248776 1.5491285 -3.2471914 -2.345089
-0.74187106 0.36797518 -0.4660766 -0.43033412 0.16597193 0.107159294 -0.35374442 -0.19933335
-0.30225527 0.42299774 -1.0565064 -0.2847015 -0.736438 0.7612612 -3.1164587 -1.2009639
-0.7304302 0.34923825 -1.3029437 -0.585279 0.1669419 0.08849782 -0.26480952 -0.024411652
-0.1551351 -0.16279615 -0.07540067 0.29334158 0.06884432 -0.3156262 0.24600065 -0.18838902
0.086371854 -0.5817556 0.53324103 -0.23202571 -1.8131071 1.0163488 0.8895983 0.80047
-0.55804294 0.26125038 0.044107914 0.20567097 0.06916494 -0.4964829 0.47192073 -0.3711485
0.013341019 -0.47509527 0.54249406 -0.38847193 -2.1081529 1.0920584 0.4424244 0.63816065
00000000: bdfd 823e 55da 893f e0a9 13c0 5b00 073f
00000010: dc57 aebe 18fd 473f e0af 21bf d2be ca3e
00000020: ac46 1e3e 544c 2a3f 9278 2ebf 2b0c a63e
00000030: 6b50 543f 969d 463f be1b dfbf e9ec 213d
00000040: f8bb 413f 7ff8 cd3f 2baf cabf f800 4fbf
00000050: 83b7 b93f 3d8b 9f3f edec 903e b979 1fc0
00000060: be92 ed3e dbd5 a93f ec5e fdbe bc88 fbbf
00000070: fd7c 573f b12a 6a3f aa91 1cbf cb15 bfbf
00000080: 9720 9d3f f0bf 773f 3a2e 42bf 71b7 6dbf
00000090: 8a6d 8a3f b773 7abf 4313 d73f 2ae1 67c0
000000a0: 750f 8d3f b567 e43e d4aa e03d a9c7 1dc0
000000b0: 34df a13f 403a 5c3f ab7f c8be bda0 d2bf
000000c0: 68fd 953f f2e1 663f 805f d8be 9329 4bbf
000000d0: 6342 d03d c8f2 76be a502 ff3f 2d75 f8bf
000000e0: 8762 343f d03b b73e 1879 1c3e 5bbe 0dc0
000000f0: 3af2 953f f023 c63f 9622 2bbf 6b9a 92bf
00000100: fc14 473f 7cff 5f3f 095a 1bbf ea75 92be
00000110: dd65 b1bf 2a7c 1340 bec7 01bf c065 5fbe
00000120: ce89 f43e 9c74 403f 2c17 95be bebf c8bf
00000130: 6cda c43f 8d98 e93f d59c 06c0 9c45 dbbe
00000140: 9c57 1b3f b935 063f a937 b3bf fc4d 9b3e
00000150: 7126 c8bd d453 5d40 32c2 21c0 8bcf 11be
00000160: 27f0 a5bf b48a af3f 13ae dabf 5d47 e5bf
00000170: 71fc 593f b5ff 0f40 4412 02c0 19cb a9bf
00000180: c983 52bf 4aea c73e d681 2dc0 f2af 43be
00000190: 6000 64bd 5ae0 aa3f 89ff 9bbf c7cf 863f
000001a0: 1685 9fbf 3391 593f bbfe e7bf 9231 91bf
000001b0: 6fbc d63e f99a b93f 99e2 b6bf d292 6cbf
000001c0: c4bb fe3e ad5b 83be 9940 0bbf fc4c b23e
000001d0: ddf0 003e 7ee1 c0bd a79b 653c 9f61 bbbc
000001e0: 40be 8e3e 1e95 9bbe 2137 95bd bd0c db3d
000001f0: 34eb de3c bed2 c4be 7f42 27be 217d 3cbc
00000200: 0543 d9bd 67e5 933e 658e 44be 40a9 933d
00000210: 30a3 c73e 96d5 66bf 5324 2a3f 9c10 11bf
00000220: ed0d 2e3e 10bb 1bbf b3f8 013f 22b4 c5be
00000230: 3119 09bf 5e55 9e3e b1d1 8a3e cd3d b9bd
00000240: 98ea 2abd 5f6b 363e abe3 8cbd 6fd3 f8bb
00000250: 1f7c 333f 0eb8 9fbf 8c34 863f 2107 86bf
00000260: 8009 353e fd36 11bf ef13 f53e 6278 04bf
00000270: ca09 42bf d36c 163f 8b15 193d 18a7 1a3d
00000280: c9eb 7a3e 54fb 733e 565b ddbd ad5d 953c
00000290: 7ec6 ca3e b501 e1bd 61f9 a43e ff4b 65bf
000002a0: ef83 8dbd 8264 05be f21d 353e 8071 bcbe
000002b0: 72ef 0b3f ce5f 453f 2d0a 52bf 6819 713e
000002c0: 6c13 053f 9466 983e 5a42 40be 5e80 1a3f
000002d0: ae56 e53e 492c 133f adb4 58be e4ff afbf
000002e0: ddfb 4bbe 0220 d53d f644 ef3c 24ac 95be
000002f0: 17a8 ea3e 14aa a13e d0e1 81bf 7307 98be
00000300: b3b0 a73e 90ed e1bb c3ee 08bf dd06 453f
00000310: 6462 b6bf d849 c63f fcd1 4fc0 f015 16c0
00000320: 43eb 3dbf 3e67 bc3e 98a1 eebe c154 dcbe
00000330: 8cf4 293e 5576 db3d fd1d b5be 0b1e 4cbe
00000340: 34c1 9abe 2993 d83e 9a3b 87bf 65c4 91be
00000350: 3387 3cbf 04e2 423f 0f74 47c0 2fb9 99bf
00000360: 79fd 3abf 5bcf b23e dcc6 a6bf d8d4 15bf
00000370: d1f2 2a3e 583e b53d 1d95 87be f2fa c7bc
00000380: bcdb 1ebe 09b4 26be ab6b 9abd de30 963e
00000390: 40fe 8c3d c299 a1be 98e7 7b3e 0de9 40be
000003a0: bae3 b03d efed 14bf 7c82 083f 2698 6dbe
000003b0: e513 e8bf b817 823f b7bc 633f 9aeb 4c3f
000003c0: e7db 0ebf 9cc2 853e 80aa 343d 699b 523e
000003d0: 59a6 8d3d 0233 febe 989f f13e 2d07 bebe
000003e0: 4a94 5a3c b03f f3be e4e0 0a3f cbe5 c6be
000003f0: faeb 06c0 92c8 8b3f 7385 e23e 7f5e 233f

B1 f4 [4]
0.8358963 -0.90952843 -0.44687435 0.6237901
00000000: 4dfd 553f dbd6 68bf b7cc e4be b5b0 1f3f

W2 f4 [4, 4, 3, 3]
-4.0869184 -0.31753176 0.24047492 -4.4262023 -0.028397674 0.13227123 -0.4348739 -0.028251551
0.049253028 -2.1501188 0.08985369 0.14117667 -0.7325381 0.21264113 0.2640589 -0.2604599
0.022102272 0.06920396 -0.85645086 -1.8968984 -4.5260277 -1.0548102 -0.28428867 -0.34800306
-0.9896201 -0.2371426 -0.17361294 -4.781659 -0.933861 0.19384384 -7.7567306 -0.24191427
0.3123373 -4.2333593 0.13303491 0.1768973 0.04605412 0.18965945 0.11651199 -1.5282798
-0.98547006 -0.4272895 -0.38199276 -0.5555096 -0.2353448 0.12471711 0.5628004 0.25322106
-0.35753754 -0.18144183 -0.061126623 -2.207066 -1.0542833 -0.20042615 0.64119065 -0.38199112
0.9848939 0.19791232 -0.37536865 0.71026814 -2.6064603 -1.447562 0.3098565 -0.0003488787
-0.013053592 0.024260255 -2.0510147 -1.2527039 -0.6726846 -0.6000287 -1.0115119 -0.7962406
0.04358928 0.1730839 0.16923419 -0.040670928 -0.04898673 -0.022122016 -0.573115 -0.56580764
-0.3203311 -0.10128641 0.007625893 -0.038492203 0.05618275 0.06756006 0.078595005 -0.2627095
-0.25941637 -0.091802575 -0.16620855 -0.13021487 -0.5028534 0.7366262 -0.38053948 0.89173794
0.042398475 0.95692253 -0.2226909 -0.016551256 -0.046485204 -0.06844604 -0.031213744 -0.14461096
-0.11296186 -0.47129485 -0.73958075 -0.44918975 0.32808098 0.028848503 -2.9572465 0.19241151
-0.7147876 -2.0239537 -0.06010194 -0.81475794 0.04859738 0.236209 -0.69629407 -1.1790092
0.13821594 -3.1962488 -0.14558768 -0.46872175 -1.3115349 0.32771719 -0.058320034 -0.2542603
-0.62521094 -0.0077008526 -0.2619299 -4.5231376 0.10948566 -0.9910265 -3.8263352 0.38277242
0.19200712 -3.9206295 0.13715267 -0.50200075 -5.421683 -0.008140757 -2.0993495 -0.58857876
00000000: 09c8 82c0 8693 a2be 0f3f 763e 73a3 8dc0
00000010: 3da2 e8bc 1c72 073e cba7 debe cc6f e7bc
00000020: 8bbd 493d 8c9b 09c0 3605 b83d 9e90 103e
00000030: 9e87 3bbf 99be 593e ba32 873e 005b 85be
00000040: d30f b53c ceba 8d3d 5d40 5bbf 91cd f2bf
00000050: 38d5 90c0 0504 87bf 498e 91be 752d b2be
00000060: be57 7dbf 82d5 72be 97c7 31be 5a03 99c0
00000070: 8411 6fbf 007f 463e 2337 f8c0 60b8 77be
00000080: adea 9f3e ae77 87c0 4e3a 083e 9124 353e
00000090: 3fa3 3c3d 1636 423e d79d ee3d ac9e c3bf
000000a0: c447 7cbf b0c5 dabe 8e94 c3be e135 0ebf
000000b0: 3afe 70be af6b ff3d b013 103f 31a6 813e
000000c0: 290f b7be e3cb 39be e95f 7abd 9240 0dc0
000000d0: c1f2 86bf 833c 4dbe 1225 243f 5794 c3be
000000e0: 0222 7c3f 87a9 4a3e 5230 c0be 22d4 353f
000000f0: 3fd0 26c0 b649 b9bf 83a5 9e3e b5e9 b6b9
00000100: bcde 55bc 71bd c63c d343 03c0 9a58 a0bf
00000110: 0f35 2cbf 7b9b 19bf 3979 81bf 6dd6 4bbf
00000120: ac8a 323d e83c 313e ba4b 2d3e 8f96 26bd
00000130: 4fa6 48bd 3b39 b5bc aab7 12bf c5d8 10bf
00000140: 7002 a4be 406f cfbd a1e2 f93b 00aa 1dbd
00000150: e21f 663d ee5c 8a3d 6bf6 a03d dc81 86be
00000160: 39d2 84be fd02 bcbd 9332 2abe 0c57 05be
00000170: 00bb 00bf 8993 3c3f 12d6 c2be f048 643f
00000180: 06aa 2d3d e0f8 743f 1509 64be 8096 87bc
00000190: 4567 3ebd 702d 8cbd f7b3 ffbc e514 14be
000001a0: 8c58 e7bd 8f4d f1be 2a55 3dbf 33fc e5be
000001b0: 3bfa a73e b253 ec3c 8743 3dc0 8607 453e
000001c0: 52fc 36bf 7588 01c0 742d 76bd fa93 50bf
000001d0: 0c0e 473d c6e0 713e 5440 32bf c6e9 96bf
000001e0: 7b88 0d3e 578f 4cc0 f014 15be 4cfc efbe
000001f0: 60e0 a7bf 8cca a73e fde0 6ebd 682e 82be
00000200: d30d 20bf 6f57 fcbb ad1b 86be 8bbd 90c0
00000210: 053a e03d eab3 7dbf ade2 74c0 bffa c33e
00000220: 849d 443e 98eb 7ac0 c071 0c3e 1f83 00bf
00000230: 6d7e adc0 cf60 05bc be5b 06c0 19ad 16bf

B2 f4 [4]
-0.012456823 -0.0020324392 -0.002184643 -0.0047162916
00000000: b417 4cbc ac32 05bb 3a2c 0fbb 1f8b 9abb

W3 f4 [4, 1, 3, 3]
-0.39080176 0.9428767 -1.2106845 0.5501912 0.5994748 -0.12808526 1.0912999 -0.41260692
0.47192144 0.4790328 0.09648757 0.43324825 0.069210716 -0.11432879 0.5949423 -0.21253651
1.0746468 -0.50378966 0.67923677 0.35444453 0.9015088 -0.7091573 0.43694198 -0.2340375
-1.1784642 -0.57659036 -0.92339104 0.6222763 0.30570796 -0.9054083 0.8228326 0.39691073
-0.42387283 2.0821385 -0.48015323 -0.5528318
00000000: 2b17 c8be 5e60 713f b6f7 9abf 55d9 0c3f
00000010: 2e77 193f c828 03be b7af 8b3f 3741 d3be
00000020: b09f f13e ca43 f53e 469b c53d b7d2 dd3e
00000030: 59be 8d3d 3625 eabd 234e 183f 2ca3 59be
00000040: 078e 893f 5cf8 00bf 76e2 2d3f c179 b53e
00000050: 48c9 663f 558b 35bf dcb6 df3e 87a7 6fbe
00000060: ead7 96bf 6d9b 13bf 5b63 6cbf 804d 1f3f
00000070: c185 9c3e d7c8 67bf 28a5 523f e237 cb3e
00000080: dc05 d9be c241 0540 a5d6 f5be 6386 0dbf

B3 f4 [4]
-0.42838764 -0.52776235 -0.16984038 -1.5344411
00000000: a055 dbbe 6f1b 07bf a3ea 2dbe 9168 c4bf
